ML Agents Play Unity/Agent Training/results/hb06/RubyBasic/RubyBasic-36670.pt (torch, 541560 bytes, 52 tensors)

discrete_act_size_vector f4 [1, 4]
00000000: 0000 4040 0000 4040 0000 4040 0000 4040
3.0 3.0 3.0 3.0

network_body._body_endoder.seq_layers.0.weight f4 [128, 32]
00000000: 7542 68be 5b4c 093e c458 453e e60b 91bd
00000010: e2a1 1dbe 790c a03d 4fb9 e13d 1e8a 563e
00000020: 4a5e d2be 9da4 4abe d7d0 87be 38f1 2b3d
00000030: 3586 bb3d b6d7 f5bc a0cb ed3d 562b a1bd
00000040: d234 64be 8289 643e 490c 94ba 5351 bfbe
00000050: a4cc 27be 847d 80be 696b 06be dd84 57bc
00000060: 865a b7bd 003c e53c 7297 b3bd 7019 2abe
00000070: ef01 a4bd bb22 30be 920d a23c ee53 b93b
00000080: 6662 29be c0bb 4e3d f6e2 82bd 3baa 963e
00000090: 1840 7ebe 7d7d 6abd 1500 0f3d e72c e1bd
000000a0: a616 553e 7793 4abe 5d9d 413e 339c 35bc
000000b0: 9367 8ebe 6830 b93c 3277 213e 12c4 043e
000000c0: 7e62 753c 4439 91bd 66fc 163d 343e 93bc
000000d0: cbb1 6dbd bee2 d4bd 2172 2abe 948d 63bd
000000e0: 993b 44bb c0fc 473e df92 a93e 545a 4dbe
000000f0: 8675 aa3d af78 a9be eccc 24be 191e b5bd
00000100: ed4e f4be 31a9 68bd cc00 13be cdb3 cd3d
00000110: b18a 12bd f3b1 803e 1a81 a13d d7bb ba3d
00000120: bf99 13be cf56 c0be f29f 29be 35f4 de3d
00000130: 105b 2abe ba65 2dbd bc55 89be 5d00 26bd
00000140: 29ca 913b 37b1 933d f75f 473e 5e82 6b3e
00000150: 5697 c93c c5bd 8dbe 096e 3a3e 0fdb 9abe
00000160: d882 7bbe 6d2e 2f3e 68d9 17be 7341 91bb
00000170: 080a 843c 3e66 9d3c 3be8 e9bc 4f19 a03d
00000180: f275 2e3e e735 bebd e9b0 1cbd 735e 22be
00000190: 31f6 01be b266 4d3e b3a3 aa3c 3455 2abe
000001a0: 3160 aa3d 4110 fa3d 404f f7be 8be1 ab3e
000001b0: a996 fb3d e9d2 123e b61e dfbe 0d4b 8f3d
000001c0: fab7 283d 8e2b 953d 8a15 0b3e 41b5 af3e
000001d0: 29a1 70bd 65a7 f83e f3d1 593d 4b28 cf3d
000001e0: ba31 523b d87e ddbd db23 74bd 7812 c53b
000001f0: ec11 84bd b447 7ebd ecbe a5bc cb24 04bc
00000200: aa5c 263b ff2a 1b3e caf3 9abe 790e 1dbe
00000210: 4553 b0be 53b2 5c3e 1f30 02bb b6fb 943d
00000220: 3dd7 2a3e df38 ed3c 0257 373d 7da1 a33d
00000230: f352 bf3e c542 8e3d fecd fd3a 8084 c5bc
00000240: 2fbb 8d3e c78a 0dbe b1e2 b3bd 1548 6f3d
00000250: 07bc 8cbe 3e9b a6bc 9ed4 5e3e 2e68 06be
00000260: 05fc cabd 88fc 5cbc ed71 edbc 9391 413d
00000270: 8cbd f93c 0766 f53d 047e 0cbc ed14 67be
00000280: 38b2 64bd 5688 643e f15c 523c cdd0 353e
00000290: b2b4 1c3e d13f 6f3d c64a 03be 4a45 333e
000002a0: 3216 bf3d 9373 483e ac89 01be b600 70bc
000002b0: 4661 8abd 4f7e 9b3e 3df2 d3bd 53f8 68be
000002c0: 8ddf 173e e166 683b 7906 90bd 30ce 45bd
000002d0: 6793 783e e4b8 47be db09 f0be eb84 e53d
000002e0: 90bf fd3d af20 b7bc 4d84 a0be 67d2 0cbe
000002f0: abe9 00be 429e 493e 4f76 1c3d 3564 fcbd
00000300: dd1c 0b3d 97c7 d33c 84d8 38bd 673a c63d
00000310: aa41 64bd 32a1 88bd 79b1 06be 89be 543e
00000320: e388 21be 34af c7be 9e76 cabe 62df 773d
00000330: db9a 913c 6492 063e e833 6f3b a827 243e
00000340: ad73 6d3d ea48 08be 18c2 7ebe f4fc 0ebe
00000350: dc86 823e e3db 863d 93c2 a53d 5fd8 7f3d
00000360: 6aa0 dabc 3197 07be b12b 023e 9b23 5d3d
00000370: 0e2a 643e 86b9 08bd 138c 58bc dfbc f1bc
00000380: 19eb ecbd 9a5e 1d3e 1582 023e 5563 fabb
00000390: 19fc cd3c 3c36 afbd 4d43 7ebe d017 7a3c
000003a0: 21b0 8cbc a6a1 dc3c 8f61 d3bd 3d18 4ebe
000003b0: ea5a a2bd 6dd1 9d3b 1a88 2cbe 7e36 18be
000003c0: 6022 0abe 61fd d7bc 09b2 d13d 8f51 44bd
000003d0: 4057 503d 84be ddbd a03c 7bbd b497 babd
000003e0: a53e ba3e f214 bb3e c5d3 49bd bf2a 7bbb
000003f0: c455 e13b 0752 a03d 4ee7 ab3d 8a10 f13d
-0.22681601 0.13408034 0.19272143 -0.070823476 -0.15393785 0.07814879 0.11021673 0.20951125
-0.41087562 -0.19789357 -0.2652652 0.04197809 0.09156457 -0.030010086 0.11611104 -0.07869594
-0.22285774 0.2231808 -0.0011295165 -0.37366733 -0.16386658 -0.2509576 -0.13126911 -0.013154236
-0.08952813 0.027982712 -0.0876912 -0.16611266 -0.08008181 -0.17200749 0.019781861 0.005655757
-0.16541442 0.05047202 -0.063909456 0.2942675 -0.24829137 -0.05724858 0.034912188 -0.109948926
0.20809421 -0.19782816 0.18907686 -0.011084604 -0.27813396 0.02260609 0.15768126 0.1296542
0.014977096 -0.07091001 0.0368618 -0.017973997 -0.058030885 -0.1039481 -0.16645099 -0.05555494
-0.002994275 0.1953001 0.33119866 -0.20053989 0.08323197 -0.33099887 -0.16093796 -0.08843631
-0.47716466 -0.05680198 -0.14355773 0.1004406 -0.035776798 0.25135764 0.07885952 0.09117859
-0.14414118 -0.3756623 -0.1656492 0.108864225 -0.166363 -0.042333342 -0.26823223 -0.04052769
0.004449148 0.072115354 0.19470201 0.2299895 0.024608295 -0.27683845 0.18206038 -0.30245253
-0.24561632 0.17107554 -0.14829028 -0.004432851 0.016118065 0.019213792 -0.028553119 0.07817327
0.1703718 -0.09287625 -0.038254652 -0.15856342 -0.12691571 0.20058706 0.020830011 -0.16634065
0.08319128 0.122101314 -0.4830265 0.33570513 0.122845955 0.14338268 -0.43578118 0.06996737
0.04119108 0.07283698 0.13582435 0.34317973 -0.058747444 0.48565212 0.05317874 0.10115107
0.0032073096 -0.10815209 -0.059604507 0.0060141645 -0.06448731 -0.0620801 -0.02023264 -0.008065413
0.0025384822 0.1515312 -0.3026412 -0.15337552 -0.3443853 0.215524 -0.0019865108 0.072745726
0.1668367 0.028957782 0.04476071 0.07989786 0.37367973 0.06946329 0.0019363759 -0.024111032
0.27681872 -0.1382247 -0.08783472 0.058418352 -0.27487203 -0.020337697 0.21760795 -0.13125679
-0.0991135 -0.0134879425 -0.028984988 0.04725797 0.03048589 0.11982351 -0.008574966 -0.22566576
-0.055834025 0.22317633 0.012839542 0.17755432 0.15303305 0.05841047 -0.12821493 0.175069
0.09330405 0.19575338 -0.12650174 -0.014648607 -0.06756835 0.30369803 -0.10348938 -0.22750978
0.14831372 0.0035461711 -0.070324846 -0.04829234 0.2427498 -0.19504124 -0.4688252 0.11206993
0.12390053 -0.022354452 -0.31350937 -0.13752137 -0.12589137 0.19689277 0.038198765 -0.123238005
0.033963073 0.025852008 -0.04512836 0.09679108 -0.055726685 -0.066713706 -0.13153638 0.20775808
-0.15774874 -0.39000857 -0.39543623 0.06051577 0.017774036 0.13141781 0.0036499444 0.16030753
0.057971645 -0.13309065 -0.24878728 -0.13963681 0.25493515 0.06584909 0.08093753 0.062462207
-0.02668782 -0.13241269 0.1271198 0.053989034 0.22281668 -0.033380054 -0.01321699 -0.029509006
-0.11568279 0.15368119 0.12744935 -0.007641236 0.025144624 -0.08555266 -0.2483036 0.015264466
-0.017173829 0.026932549 -0.10321342 -0.20126434 -0.07927497 0.0048162253 -0.16848794 -0.14864537
-0.13489676 -0.026365938 0.10239036 -0.047929343 0.050864458 -0.108273536 -0.061337113 -0.09110966
0.3637592 0.36539418 -0.049274225 -0.003832504 0.006876679 0.078281455 0.08393727 0.11770733

network_body._body_endoder.seq_layers.0.bias f4 [128]
00000000: 41d7 eb3a f85a 6c3a 6ed6 f4b8 1f1c 3bbb
00000010: e224 1fbb c0da 1a3b 5a0e 9cba 5c0a 26ba
00000020: da70 fa3a 3067 933b ce51 173b 063e 823a
00000030: b796 91ba ac19 dd3a e104 96bb ee07 8a3a
00000040: aaa8 e4ba bbe8 daba 8424 e43a ee28 de3b
00000050: 65b2 2e3b e1c4 103a 2225 c9ba f18d 903a
00000060: 6e73 48bb 02c4 b03a 029c 33ba d36c 6aba
00000070: adbb 2bbb d992 e1b9 da7e 1bbb cd49 e63a
00000080: e423 313b eaed 28b9 b46c 99b9 fff3 023a
00000090: 450d 34bb ac47 82bb 4a96 4dbb 6dc7 cb3a
000000a0: b648 24bb 6008 2cbb 8679 28b9 6da5 ecba
000000b0: 6603 b839 16ff 78ba 9f91 daba 359b aab9
000000c0: 07f2 bcba 74a4 a639 16e3 7a3a 2b74 c13a
000000d0: 02b1 8e38 4bba 25bb 716f af3a b2bc df3a
000000e0: 4751 7ab9 96f6 4f39 84b8 cab9 dd67 acba
000000f0: 50d2 27ba 601e ebba 3820 7bba 7eec 54bb
00000100: 5ee2 e2ba fa5c db38 cee0 c0b8 df5b d13a
00000110: 7eff a33b fa01 8d3b 28ea 57ba 91e5 b4ba
00000120: 10ad aaba eed8 cd39 9d1f 9c3b 1cf6 bb3b
00000130: 4b5b 52bb 1340 e93a d804 79ba 87e3 d2bb
00000140: 9213 b9ba 94ee a63a 31e4 273b 0cd0 2639
00000150: 872b 6dbb 1552 893b b326 43ba e031 b5ba
00000160: 6fed 09bb 1e1b 7cbb 2a28 87b9 be16 37bb
00000170: 2cf5 893a 9505 a9ba d3e3 1dbb ed4d c939
00000180: 5245 53ba 4cb7 e13a aefd 57bb 93f1 e6b9
00000190: 39b4 3fba ea4d a9bb 3053 f1ba 150a 9cbb
000001a0: 9f7d f8ba d429 dc3a e476 6a3b 9e03 c2ba
000001b0: 8f4f 4c3b aec9 9cba d797 573a f360 ccba
000001c0: 80af 8cba 6488 37bb 2e59 b2b9 b0b2 91bb
000001d0: a072 d6ba 0640 43ba d050 c3ba 99a8 093b
000001e0: 91dd 33ba 14d7 a539 2565 6cba 4a78 023a
000001f0: 385e 65bb 600d 21ba 09b4 b6b9 8d10 00bb
0.0017993228 0.0009016241 -0.00011674767 -0.0028550697 -0.0024283458 0.002362892 -0.0011906133 -0.0006333941
0.0019107119 0.004498385 0.002308953 0.0009936697 -0.0011107539 0.0016868613 -0.0045782183 0.0010530928
-0.0017445285 -0.0016701439 0.0017405902 0.0067797815 0.0026656624 0.00055225013 -0.001534615 0.001102863
-0.003058638 0.0013486149 -0.0006851555 -0.00089426077 -0.0026204393 -0.00043024754 -0.0023726732 0.0017569602
0.002702945 -0.00016110358 -0.00029263424 0.00049954647 -0.002747373 -0.003975829 -0.0031370097 0.0015547104
-0.0025067753 -0.002625011 -0.00016067 -0.0018054672 0.00035097747 -0.000949846 -0.0016675479 -0.00032540565
-0.0014415391 0.00031784514 0.00095705816 0.0014759352 6.804058e-05 -0.0025288041 0.0013384653 0.0017069785
-0.00023872136 0.00019832919 -0.00038665917 -0.0013153512 -0.00064018834 -0.001793813 -0.0009579691 -0.0032489593
-0.0017309894 0.00010460052 -9.1971466e-05 0.0015972814 0.0050048223 0.004303214 -0.0008236491 -0.0013801326
-0.0013021547 0.00039262272 0.004764511 0.0057361256 -0.0032097872 0.0017795585 -0.0009499318 -0.006435815
-0.0014120212 0.0012735897 0.002561819 0.00015908497 -0.0036189274 0.004190693 -0.00074444263 -0.0013824068
-0.0021046062 -0.0038468312 -0.0002577913 -0.002793714 0.0010525337 -0.001289534 -0.0024092093 0.00038395767
-0.0008059341 0.0017220764 -0.0032957601 -0.00044049005 -0.0007312927 -0.005166759 -0.0018411633 -0.004761944
-0.0018958336 0.0016797134 0.003577643 -0.0014802103 0.003117535 -0.0011961961 0.0008224225 -0.0015592858
-0.0010733455 -0.002800488 -0.0003401725 -0.00444635 -0.0016361065 -0.00074482 -0.0014901403 0.0021005033
-0.0006861324 0.00031631498 -0.0009017757 0.0004977031 -0.0034998786 -0.00061436556 -0.00034847882 -0.0019541115

network_body._body_endoder.seq_layers.2.weight f4 [128, 128]
00000000: bed8 283d 5e07 40bd 1993 23be 46ec 823d
00000010: 2787 1c3d 7c5c f6bb 2669 5d3d e906 ee3d
00000020: 2199 81bd cf42 093d 94f3 563c c35c 4ebd
00000030: f91b 923e 7ce8 a5bd 61e5 093e e944 713d
00000040: 69e7 1c3e 9897 c53d 98d9 3c3d 6fce 79bd
00000050: 0431 1a3e 8be1 26be f262 4abd 4a64 f63d
00000060: e981 0c3e 61c4 a6bc bf42 8bbd 99bd 20bc
00000070: 3ae8 cebc 1579 bfbc 95ad 803d 98c8 bc3c
00000080: 0a94 283d 5687 2dbd e36b e2bc 8a28 cf3b
00000090: e0b9 4bbd 646f 97bc 1310 b53b a177 19bd
000000a0: 3663 ea3c 0f15 d0bd 0d90 023d 6166 a93c
000000b0: b109 92bc 6561 15bd 0951 65bd 0ab7 44bb
000000c0: 1481 3239 27d6 40be 1bd3 bbbc 2499 14bd
000000d0: 2bc0 473d b5fd abbc 9372 49bd 0071 753d
000000e0: ed4a 073e 2489 f3bd 99c1 b23d 7b97 f1bc
000000f0: 568e ffbd fea4 6bbd 6e1b 2bbe e6a2 b2bd
00000100: 9f93 fcbd b3b3 cc3d 5069 ecbd a7f9 733d
00000110: ec9d f9bb 6d60 46bd 1c20 11be 2ecd 933d
00000120: 416a 1f3d 9e7d a53d f611 5a3d b3d6 0abe
00000130: 820c 88bc 7596 ed3d 5b18 0ebe fa55 e33b
00000140: 2516 bebd 6991 c83d ad87 9abc c6f3 d8bd
00000150: 7551 bd3b 7eca bdba 784d 8cbd 0c77 e4bc
00000160: 7916 80bd 7310 173e 1663 853d 9bcf 333e
00000170: 1d1e 0c3d e518 b93c 4e2b 373e 53d9 ef3d
00000180: ea1d 1ebb f0e9 243e 2683 3d3e 8c69 ec3c
00000190: 21bb 9abd c2d3 1fbe a05f b83c a5e2 773d
000001a0: d0f7 ab3d 4913 753d 704f d2bd 55ca 0f3d
000001b0: cbda 58bd 854b 0f3e b37b ae3d fc60 663d
000001c0: 186f 52bc 4f6a 943d d453 9dbd 70c0 f53d
000001d0: 48a7 113e 058b 263d 9007 bfbd 79af dabd
000001e0: 68cf 563d 8f78 b63c 4d69 cebc cdbc 8cbd
000001f0: 824e 7bbd 4d74 6fbd 52ac 0dbd 8b21 95bc
00000200: 0455 7ebd 7f12 703d e7a0 bb3c d4b3 183d
00000210: fbdb 42bd f73c 8cbd a43a 1e3e 2772 1ebd
00000220: d036 debd 164a 423c 0b2f ccbd 26e0 95bd
00000230: a680 85bd 56e2 11bd 8249 9fbb 475b d73d
00000240: edf4 1c3e b409 ecbc 9a69 dabd 7fdf c0bd
00000250: 677e 523b bb2a f0bc a07e a33d 588c 55bd
00000260: 1c7b 02bd 888a d63c 65c6 a63d 9618 06be
00000270: 19b9 aabc 395e e6bc fbfb d13d 12d9 953d
00000280: 89be 333e 3a44 403d 4e5d 05bd 63f5 1f3d
00000290: 499c c83d b2ab fdbc 9511 90bc dc79 713d
000002a0: 502c 753c 28a8 9abc 15fb 11bd 5e5c f7bd
000002b0: 07c3 b4bc 19ad 4abd e208 07bd c29f 6cbd
000002c0: 0424 e7bc 56aa cdbd 4917 ba3d 9ff1 883d
000002d0: 017d f0bd dd19 72bd 116c 9cbd ab11 763d
000002e0: 1884 2e3e b351 373d 6bab df3d 78d1 b4bd
000002f0: 6058 35bd e9ec f43d d8c1 d13d 9c65 c3bc
00000300: bc55 b73d 86e0 393c 69f7 b0bd e6ce 8bbd
00000310: a552 4c3e 3a45 083d d990 3abe 31d8 c4bd
00000320: b9f1 013c 9801 b03c 700d 0abe a528 1f3d
00000330: e94f 213c 964b 323d b0f3 91bb eb4c bebd
00000340: 6580 813c 21e4 81bd 90f2 a83b 49a5 fb3d
00000350: 342f 023e 4811 e9bd 8eff 6abd 8246 84bc
00000360: 33c9 c5bd be3f 0cbe 50f6 63bd 9a35 173e
00000370: 78d9 a9bc 3acb a7bd 7e90 2abe 32bd 46bd
00000380: d8e2 a0bd 6638 cf3d 00b3 3cbd 4b7c 053e
00000390: 6aef 25bd 7106 dcbd 45b6 c63c 5755 4f3d
000003a0: bd31 723b 4e85 253d 0f87 083e 24fd a3bd
000003b0: 4c75 713e bd9c aabc 172f 65bc ecc3 c1bb
000003c0: ba18 283b fa24 97bd 2e80 7bbb 1c4e 1fbb
000003d0: 1918 5dbd c985 a73d 0530 8dbc c58e 0ebe
000003e0: 90af ff3d cca4 a13c 44b2 2b3e 1508 bd3d
000003f0: 7560 4c3e 187b 94bd fab6 6c3c 4f8b 23bc
0.041222326 -0.046882026 -0.15974082 0.06392722 0.03821483 -0.007518349 0.054055355 0.11622412
-0.06328035 0.03351098 0.013119597 -0.050381433 0.28536966 -0.081009835 0.13466407 0.05890361
0.15322651 0.09648055 0.04610595 -0.060987886 0.1505776 -0.16296975 -0.049410768 0.12030847
0.13721432 -0.020357313 -0.0679984 -0.009810829 -0.025257219 -0.023373166 0.06283108 0.02304487
0.041156806 -0.042365395 -0.027639335 0.0063219713 -0.04973781 -0.018485732 0.005525598 -0.037467603
0.02861176 -0.101602666 0.03187566 0.0206787 -0.017826887 -0.036469836 -0.055985484 -0.0030016326
0.00017023488 -0.18831693 -0.022927811 -0.03627886 0.04876725 -0.020995 -0.049181532 0.05992222
0.13212176 -0.11891392 0.08728332 -0.029491177 -0.1247832 -0.057530396 -0.16709682 -0.08722477
-0.12332844 0.099952124 -0.11543524 0.05956426 -0.0076177027 -0.048431803 -0.14172405 0.07216869
0.03891969 0.080806 0.053239785 -0.13558464 -0.016607527 0.11600963 -0.13876478 0.0069377394
-0.092815675 0.0979336 -0.018863523 -0.10593371 0.0057775327 -0.0014479903 -0.068507135 -0.027888797
-0.06254286 0.14752369 0.0651304 0.17559664 0.034208406 0.022594878 0.17887613 0.11711373
-0.0024126717 0.16104865 0.1850706 0.028858922 -0.07555223 -0.15608123 0.022506535 0.06051888
0.08396876 0.059832845 -0.10269058 0.03510507 -0.052943032 0.13993652 0.085196875 0.056244835
-0.01284387 0.07246839 -0.076820046 0.11999595 0.14223969 0.040659923 -0.09327614 -0.10678
0.05244389 0.022274284 -0.025196696 -0.068719484 -0.061354168 -0.058460522 -0.034588166 -0.018204471
-0.062092796 0.05861139 0.022903873 0.037280872 -0.04757307 -0.068475656 0.15452057 -0.038683083
-0.108502984 0.011858484 -0.0996991 -0.073181435 -0.06518678 -0.03561624 -0.0048610577 0.10515457
0.15327807 -0.02881322 -0.10664673 -0.094176285 0.0032118799 -0.02931725 0.07983136 -0.052135795
-0.031855687 0.026189104 0.081433095 -0.13095316 -0.020840215 -0.0281211 0.102531396 0.073167935
0.17553152 0.046940066 -0.032559685 0.03905238 0.09795434 -0.03096566 -0.017586509 0.058954105
0.014964178 -0.018879011 -0.03563984 -0.120781645 -0.022065653 -0.049481485 -0.032967456 -0.057769544
-0.028215416 -0.100422546 0.090864725 0.066867106 -0.117425926 -0.059106696 -0.076377995 0.060075443
0.17042577 0.04475565 0.10921367 -0.088290155 -0.044273734 0.119592495 0.10242051 -0.023852162
0.089518994 0.011345034 -0.0864094 -0.06826572 0.19953401 0.033269145 -0.18219317 -0.09611548
0.007931166 0.021485135 -0.13481688 0.03885712 0.009845712 0.043529116 -0.0044540986 -0.09292015
0.015808294 -0.0634234 0.005155869 0.12287385 0.12713319 -0.11380249 -0.057372622 -0.016146902
-0.09657516 -0.1369619 -0.055654824 0.14766541 -0.02073358 -0.08193059 -0.16656682 -0.048520274
-0.07855767 0.10118179 -0.046069145 0.13035695 -0.040511526 -0.10743416 0.024256835 0.050618496
0.0036955916 0.040410332 0.13332771 -0.08007267 0.23579901 -0.020826692 -0.013988278 -0.0059132483
0.0025649504 -0.073800996 -0.0038375962 -0.0024308031 -0.05397806 0.08179814 -0.017234812 -0.1392165
0.12484658 0.019731902 0.16767222 0.09230057 0.1995867 -0.07250041 0.014447922 -0.009981944

network_body._body_endoder.seq_layers.2.bias f4 [128]
00000000: 949c 5bba 14fe 0dba 6cfd 34bb b22d a9b9
00000010: a2ee 09ba d6dc 1dbb 62d7 beba c28e c63b
00000020: b827 fbba dbc7 80b8 17cd 66bb b1d9 083b
00000030: 6172 8fbb 4485 baba eab5 8dba 489f a13a
00000040: 7942 2cbb f461 1eba e69a 1a3a 8d7c 51bb
00000050: f4c4 0c3b 1dcf 8fb9 2e3a b63b b2c3 9bba
00000060: 345c 00ba f770 a7ba 80e9 58ba 5789 acba
00000070: 021e 5abb ce21 7eba c0e2 5aba 6554 1bbb
00000080: 66e4 85ba 3407 12bb a9a5 aab9 15f1 b6ba
00000090: e00c 8dba 8ac7 eaba f283 2dbb e645 f3ba
000000a0: 40de 9cba 278c c539 a2ad 9fba dfa7 99ba
000000b0: 4e28 16bb 3b89 8eba ec7e 693b 5c8d fbb9
000000c0: 4314 c7ba 0af0 87b9 084a b1ba 3629 19b9
000000d0: 9e79 85bb e3c0 013a 23f5 1cbb 3e83 c6ba
000000e0: 0525 143b beaf 01ba 5278 54bb 214e 98bb
000000f0: ae00 89b9 0745 f9ba eb0a 1aba 8eb8 4aba
00000100: 98d8 67b9 d27a 8fba fe63 5839 a2a8 e2ba
00000110: 53c1 003b db3b 0abb 0523 83ba 970a 71ba
00000120: 9028 14bb 7ff2 8ab9 149a 0cba ffd0 53bb
00000130: 8acf e3b9 248c a8ba c886 4fba a0db f5b9
00000140: bb4c 6eba 3a57 42bb a52b cc38 4392 853b
00000150: f35b 87ba e60a 84ba d823 6eba 7471 24ba
00000160: e4eb 573b 75f1 92ba f5fe 1ebb 9e07 0abb
00000170: 8f34 f2ba 0d73 c0ba 4365 11ba 9577 a5ba
00000180: 85a4 a6ba f394 92ba c150 893b 6cb5 ccba
00000190: 5300 e2ba 8efa 5fba 6ff9 72ba e820 35bb
000001a0: 118c d738 02bd 0abb e73a beb9 c091 4b3b
000001b0: 2485 e6ba 739e 6fbb a019 e5ba 1633 8bbb
000001c0: aec2 c6ba a1da 1dba 2908 823a 80b7 b4ba
000001d0: 3a13 9c3a 3c82 82ba 416f 993b 37dd e73b
000001e0: 0fae 413a 45ac 4ebb cc3b 4039 99af 32bb
000001f0: f4ea 21ba bc5e aeba 7679 a6ba af6f 94bb
-0.0008377519 -0.0005416584 -0.0027616872 -0.00032268238 -0.00052616943 -0.0024087927 -0.0014560039 0.0060594985
-0.0019161617 -6.1407416e-05 -0.0035217458 0.0020881707 -0.0043776487 -0.001423039 -0.0010811661 0.0012330795
-0.0026284738 -0.0006041818 0.00058977155 -0.0031965107 0.0021479698 -0.00027429397 0.005561135 -0.0011883883
-0.0004896552 -0.0012774755 -0.00082745403 -0.0013163489 -0.0033282046 -0.00096943683 -0.00083498284 -0.0023701426
-0.0010215163 -0.0022282125 -0.00032548353 -0.0013957346 -0.0010761283 -0.001791225 -0.002647635 -0.001856026
-0.0011968091 0.0003767919 -0.0012182484 -0.0011723003 -0.0022912207 -0.0010874638 0.003562863 -0.00047979772
-0.0015188534 -0.0002592805 -0.0013526091 -0.0001460657 -0.004073336 0.0004949702 -0.0023949824 -0.0015145314
0.0022605073 -0.0004947147 -0.003242035 -0.0046479856 -0.00026131183 -0.0019017764 -0.00058762607 -0.0007733189
-0.00022110564 -0.0010946637 0.00020636615 -0.0017292688 0.001964648 -0.0021092806 -0.0010004943 -0.00091949984
-0.0022607185 -0.00026502085 -0.00053635356 -0.0032320616 -0.00043451443 -0.0012859148 -0.00079165073 -0.00046893675
-0.0009090413 -0.0029654042 9.7356075e-05 0.0040762736 -0.0010327086 -0.0010074049 -0.00090843206 -0.00062730093
0.0032946998 -0.0011210876 -0.0024260853 -0.002106167 -0.0018478798 -0.0014682725 -0.00055464 -0.0012624139
-0.0012713826 -0.0011183306 0.004190535 -0.0015618033 -0.0017242528 -0.00085441105 -0.0009268736 -0.0027638022
0.00010278088 -0.0021169786 -0.0003628351 0.0031062216 -0.0017587286 -0.003656295 -0.001747895 -0.0042480333
-0.001516422 -0.0006021653 0.0009920645 -0.0013787597 0.0011907585 -0.0009957026 0.004682452 0.0070759314
0.00073883025 -0.0031535786 0.00018332823 -0.002726531 -0.00061766733 -0.001330338 -0.0012700993 -0.0045299153

action_model._discrete_distribution.branches.0.weight f4 [3, 128]
00000000: 1b67 653b 3a23 be39 5c2f 763c 0d0e 973c
00000010: 0ec5 a4bc f3bc 8fbb f7c5 c8bb 5df1 81bc
00000020: e30f f1ba ae10 913b 8e37 b13a 9a96 d53b
00000030: 4c4f 003c d586 6a3c 3683 e83b 63a9 87bc
00000040: c7f5 013c 2e0b b0bb 8e24 c03b e305 5eba
00000050: b3e9 98bb 81e4 053c b5ae 1a3c 8795 2c3c
00000060: fec2 db3b 289e c13b cc52 49bb 2ed3 56bb
00000070: 7447 28bb 03ca d239 0372 c9bb 55d5 17bc
00000080: d7a7 bb3b 1929 0f3c 7379 8cbb dfcb 133b
00000090: 473d 92bb 0fab 23bb 234c b438 aa43 c23b
000000a0: 4099 1a3b ee3c c5bb d576 033c 6a19 263c
000000b0: 0e19 953b 318f 1fbb 5a08 4bbc 83ee bd3c
000000c0: 1812 74ba 5a3c 463b 4f19 d1b9 6187 abbb
000000d0: 9f9f 09bc 6710 b43b a765 7dbb a0f2 82bc
000000e0: a826 0a3b bfbb 653c ec19 42bc bdd0 cb3b
000000f0: 50e3 5dbb 1466 493c 4f7b 703a a05c d0bb
00000100: efc2 f0ba 7c05 203c dd85 a8bb f653 373b
00000110: 1fbe b73b 5bc9 e13b dab8 8bbc b4da 6eb9
00000120: 7415 3f3a 1727 0c3c 1488 7ebc 837e f8ba
00000130: 72e2 993b 29c2 81bb 25c5 373b 2d05 01bb
00000140: dec4 7d3c b538 6eb9 ac49 133c 6342 86bc
00000150: 5418 393b 58b7 fd3b 241e 2e3c 67c7 503b
00000160: d168 55bc 9c05 9d39 c638 993c c706 283c
00000170: f671 a4ba bceb 62bc d1c4 c53b 0c30 8a3b
00000180: d8a9 3abc 17bf 573c 685e af3a 37a7 403c
00000190: f22b 013c fd3b 4d3c baef 30bc 01a6 8a3a
000001a0: 4dca e2bb 4c10 d33b 6e53 22bb 14f4 a13c
000001b0: 3e5a cdbb 25b1 8fbb 2305 ae3b 929c 2e3b
000001c0: 051d aabb 4f8d 84bb fdcd ad3b 165c 99bb
000001d0: bcad 54ba 87ba 62bc a267 253c fa36 87bb
000001e0: e1a5 e9bb a51a 4d3c 675b 3bbb 87fb ad3b
000001f0: c3b2 f43b 7bcd b8bb 30f7 373c a7f3 553c
00000200: fb4f 01bc e6fc 22bc f9bc 713c 8748 1dbc
00000210: 8e7f 283c 6c1e 8b3a f117 bcba 0c28 b63c
00000220: a9cf babc 7a63 333c 55b1 1cbc fd98 05bc
00000230: a035 c0bb ff0b 3cbb 12b3 623b a5e7 0ebc
00000240: 34b3 94ba cdeb ac3a 2891 963b 8b7d 913c
00000250: 10fe 8b3c 0225 c13a d487 9fbc 1e77 cb3c
00000260: d7c0 2f3c c6e3 5dba 81b4 9bbb 8f45 aabb
00000270: 56ff 583c 9009 b33b 7813 bcbb 3333 a1bb
00000280: 626e a7bb fd8d 03bc 926a 4ebb aec7 da3a
00000290: f555 a03a 1d68 4f3b 8230 2fbc ca9c ca3b
000002a0: c2aa 3fba 4841 153c b1c5 77b9 325e babb
000002b0: 3b31 b0ba b01f 43b9 dde7 9bbb f122 00bb
000002c0: 5e45 00bc 001f 033c f20a ab3b 6483 633c
000002d0: 5372 24bc 2643 4dbc e31b 9cbb 7806 36bc
000002e0: d70f 98bc 5e94 bbbb 4d78 faba 6392 7cbc
000002f0: c9b8 0f3b 5d6e d03c 4bd6 573c 05d4 d43b
00000300: a352 883c 417a d9ba 6d2e abbc d591 7c3a
00000310: 2788 893c 9717 493b c7cc 463c cb1c da3b
00000320: e177 a03c 994c bdbb c9d7 3abb 3114 a2bb
00000330: a112 0ebc a1f8 96bb 2748 aebb 9fe1 3f3b
00000340: 0ccc fe3a 6107 19bc 20ad 8b3c c011 dd3b
00000350: 3fa8 18bc 1722 5ebc 91af ce3a 8d19 8fbc
00000360: d225 2fbc afe8 8cbb 654a 29bc 396e 453c
00000370: 2272 d8ba f78c 0bbb 4eae 013c eebc 36bc
00000380: 0b62 9dbb d8d6 533a becb 953c b680 1fbc
00000390: 5413 1b3c 18e4 98bb 7cae 9a3c 9e6f 293b
000003a0: 5569 553b 41b8 9139 bc2b 57bc 9eed 2a3c
000003b0: 45fb d7bb ee9f 513b 68a2 94ba 02aa d9bb
000003c0: 1989 dabb bfed 513c beea 8f3a 57d5 923c
000003d0: 15ac d1ba b773 903b 11a7 ab3b 7919 10bc
000003e0: 5000 e538 b385 0d3a 420e b2bb 7914 38bc
000003f0: bd2c 853c 3eee 1dbb cbd1 5cbc 3a12 9c3b
0.0035004083 0.0003626587 0.01502594 0.018439317 -0.020113494 -0.004386538 -0.006127115 -0.015862161
-0.0018391575 0.004427037 0.0013520585 0.0065181972 0.007831406 0.014314373 0.0070957197 -0.016560262
0.007932133 -0.0053724265 0.0058637327 -0.0008469505 -0.004666531 0.008172155 0.009441067 0.010533697
0.0067065945 0.0059087463 -0.0030719517 -0.0032779681 -0.0025677355 0.00040204832 -0.0061476245 -0.009267171
0.005726795 0.008737826 -0.004286939 0.0022551937 -0.0044628712 -0.0024973785 8.5972504e-05 0.0059284763
0.002358988 -0.0060192263 0.008023937 0.010137895 0.004550106 -0.0024346823 -0.012392128 0.02318502
-0.00093105575 0.0030248375 -0.00039882443 -0.0052346443 -0.008399873 0.0054951194 -0.0038665326 -0.015984833
0.002108017 0.014021813 -0.011847001 0.006219952 -0.0033857413 0.012292404 0.0009173648 -0.006358698
-0.0018368642 0.009766933 -0.005142911 0.0027973629 0.005607381 0.0068904585 -0.017055918 -0.00022778922
0.00072892685 0.008554242 -0.015535373 -0.0018958602 0.004696184 -0.0039599133 0.0028041091 -0.0019686923
0.015488831 -0.00022718574 0.008989733 -0.016389078 0.002824326 0.0077428035 0.010627303 0.0031857134
-0.013025478 0.00029949553 0.01870383 0.010255522 -0.001254617 -0.013850149 0.0060354252 0.0042171534
-0.011393033 0.013168118 0.0013379576 0.011758617 0.007884013 0.012526509 -0.010799343 0.0010578037
-0.006921089 0.0064411517 -0.0024768966 0.019769706 -0.006266861 -0.004385131 0.005310671 0.0026643616
-0.0051914477 -0.0040451656 0.0053040967 -0.004680167 -0.00081130466 -0.013838417 0.010095509 -0.0041264268
-0.00713037 0.01251856 -0.0028588416 0.0053095254 0.007467599 -0.0056397296 0.011228368 0.0130585795
-0.007892604 -0.009947991 0.014754527 -0.009599811 0.010284318 0.0010613925 -0.0014350397 0.022235893
-0.022804098 0.01094901 -0.009563764 -0.008154151 -0.0058657676 -0.0028693674 0.0034591598 -0.008722221
-0.0011344911 0.0013192833 0.0045949407 0.017760059 0.01708892 0.0014735761 -0.019473948 0.024837073
0.010727129 -0.0008464422 -0.0047517424 -0.0051962803 0.013244471 0.0054637864 -0.0057396255 -0.0049194335
-0.005109594 -0.008029458 -0.0031496626 0.0016691589 0.0012232648 0.003164775 -0.0106927175 0.0061832415
-0.00073115167 0.009109803 -0.00023629401 -0.0056874985 -0.0013442406 -0.00018608454 -0.004757865 -0.0019552077
-0.007829038 0.008002996 0.0052198106 0.013886306 -0.010037023 -0.0125282165 -0.0047640665 -0.011109941
-0.01856224 -0.005724474 -0.0019109339 -0.015415761 0.002193021 0.02544325 0.01317365 0.0064950013
0.016640967 -0.0016592221 -0.020896161 0.0009634768 0.016788555 0.0030684227 0.012133784 0.0066562644
0.019588413 -0.0057769534 -0.0028509966 -0.0049462547 -0.008671434 -0.0046072756 -0.00531866 0.0029278768
0.0019439473 -0.009340138 0.017050326 0.0067465007 -0.009317457 -0.013557932 0.0015768876 -0.017468238
-0.010690169 -0.004300199 -0.010332678 0.012050205 -0.0016513506 -0.0021293738 0.007915093 -0.011153443
-0.0048029474 0.00080810254 0.018285628 -0.009735277 0.009465057 -0.004665863 0.018882029 0.0025853883
0.0032564003 0.00027793835 -0.013132986 0.010432629 -0.006591233 0.0031986195 -0.0011339905 -0.006642581
-0.0066691753 0.012813031 0.0010979993 0.017923994 -0.0015996719 0.0044083255 0.0052384217 -0.008795136
0.00010919629 0.0005398646 -0.0054338286 -0.01123535 0.016256684 -0.0024098302 -0.013477753 0.004762915

action_model._discrete_distribution.branches.0.bias f4 [3]
00000000: dca0 a638 ea90 6d3a df3b fab9
7.945459e-05 0.00090624264 -0.00047728323

action_model._discrete_distribution.branches.1.weight f4 [3, 128]
00000000: fa79 1f3c 2fed c53b 063d 62bb 1038 ad3a
00000010: 344c 0c3c 027c cf3b 3964 00bb 949c 4b3b
00000020: 051c d03b 54af 5dbb 896d 483b 53ec aa3b
00000030: caa3 7b3b ef2c 05bc 7990 48bb 46eb 5f3c
00000040: 8ba0 8ebb 0acf 82bb 6458 a93c 3395 543c
00000050: 9b63 293c 41e9 b0bc f22f 4bbc 3a37 01bc
00000060: 7a9c d9bb 0a50 293c f76a 21bc 3063 c23b
00000070: 44ec 0c3c bc7e c43b df34 11bc f204 6d3c
00000080: 6de8 853b 6444 673a b77b d6bb fe7e a03b
00000090: 680e 843b 0caf 3f3b a766 36bc aff9 0fbc
000000a0: 4a01 61bc 1a6d 84bb a11e 00bc 03ab a7bb
000000b0: e3e8 163b 4ba4 a23a d6d9 ca3b 31e0 2a3c
000000c0: f654 2fbc e1d4 da3b 9520 00bc ed0c 923b
000000d0: 6362 1a3c 1a1d 8cbc 57ce 713c 5927 3abb
000000e0: f5a4 4abc 1c29 ed3b 6dde 86bc 77b8 35bb
000000f0: 8fb1 28bc 7481 7a3a b1ac ddbb f802 a3bb
00000100: 6baa d3ba 6cad c0bb e6ae 8f3b f295 2238
00000110: d1cc 61bc 0453 4f3c faf0 213a cd44 c23b
00000120: d146 e83b 9ae7 1f3c 26c3 eabb bd72 333c
00000130: 3b88 60bb ee54 acbc 10e1 86b9 80bd 6b3c
00000140: 417b bc3a 6a14 fc3b 267e d5ba 0f4c 19ba
00000150: 3558 f13b 2483 91bc 3c62 8f3b 3f7a cf3a
00000160: 162a 61bb 0e28 a1b9 91e8 8a38 1380 7d3c
00000170: 3d02 d23b ca96 f8bb 0b0e f5bb ac82 fd3b
00000180: 63a7 9f3c e174 39bb 40a0 fd3a 7aff a6bc
00000190: 059e c53b 4498 54bc 75a7 093c 0043 383c
000001a0: baa2 cdbb c1c9 c4bb c00f 2cbc a573 513c
000001b0: a046 b1bb a192 22bc d864 963a dadc 9dbb
000001c0: da6c b3b9 c6e9 d63b b869 903b 8850 14bc
000001d0: 1838 d3bb 2df3 31bc c65a c03b a930 b5bb
000001e0: 6b9c 5e3c 5604 d0bb dff0 85bc 44d5 b03b
000001f0: c267 57bb 5675 603c 01b2 d1bb 4048 35bb
00000200: a0bf 59bc 66a6 e8bb 0808 013c 1c17 b2bc
00000210: bc85 b53b c1de af3a c6d9 aabb 92c3 e13b
00000220: 66c2 64bb bfac 70bc 18c4 29bb e157 193b
00000230: fd4f a0bb 53ad d43b 19d4 1eba 64bd dcbb
00000240: 1e10 4e3c 9f7c 2dbc d150 80bb 7296 303c
00000250: c51e 6b3a 4ca2 2d39 2302 59bb 6fdd 0e3c
00000260: 3feb b13b 33fb b7bb 58e8 dabb e2e0 a7bb
00000270: 172d eebb a14c 8ab9 a1e8 7f3c 535b 49bc
00000280: b442 14bc df85 0d3a 7d7d e4bb 6269 583b
00000290: b7b4 e93b 44ec 86bc b16d 87bc f942 b33b
000002a0: 0d09 333c 7bcb 0d3c 5b03 76ba ab0d a23a
000002b0: 3ba6 023c 772e 8a3b 99fe 1ebc 4e73 af3c
000002c0: 9ffc 12bb 03a1 aebc 1098 23bc b319 dbbc
000002d0: 9530 c8bb 2105 ccba 5c5d cc3b d087 9fbb
000002e0: d30c 713a 36cd 46bc da68 243b 3809 e5bb
000002f0: e9d8 f03b 9477 9fbb 8881 143c 40f1 0dbc
00000300: 8f8a 1abc 9daf 02ba a35b 963a a5e1 3f3b
00000310: 1efe 01ba 629d 1abb 52bc 4b3c 0b98 75bc
00000320: 2da8 e73b 1c39 b53b 1090 a43b 5e84 943b
00000330: c28b 63bb eecb 84bb 338b 8c3b 37d5 a5ba
00000340: 23c7 cbbb 2361 5d39 9882 06bb 1e23 3bbb
00000350: 91f3 ed3b 4f09 a13b befd e03b 945b a0bb
00000360: b191 063a 6160 9138 111f 4b3c dabb b2ba
00000370: 88f4 0d3c c5f8 6a3b 8c88 52bc e0d5 02ba
00000380: a9c7 a73a 59cc 723c 133e 22bb 88e7 153c
00000390: 4eea 493c b1d6 723b d597 22ba fb2b 5b3c
000003a0: a707 4ab9 e180 30bc 280c 9cbc bb68 f0ba
000003b0: d413 d8ba 93af 89bb 8847 ec3b 64f6 9fb9
000003c0: e5ba 55bb 56cb 2dbc 998e 74bb 005e 903c
000003d0: 6a5c 27bb 6665 e03a 225a 473b 5043 1b3c
000003e0: 35ad c0bb 4fef 843c 5070 dabb 9cdf 1a3c
000003f0: df23 f03b c1db b23b 128d d93a 3ceb b83b
0.009733671 0.0060402374 -0.0034521236 0.001321556 0.00856309 0.0063319216 -0.0019590987 0.003106867
0.0063509964 -0.0033826428 0.0030582866 0.0052161603 0.0038397186 -0.008128389 -0.003060369 0.013666933
-0.0043526343 -0.003991966 0.02067203 0.012975025 0.010338689 -0.0215956 -0.012401568 -0.007886702
-0.006640968 0.010334024 -0.009852163 0.005932234 0.008601252 0.005996553 -0.008862703 0.014466511
0.004086545 0.00088221417 -0.0065455097 0.004897951 0.0040300377 0.0029248623 -0.011132873 -0.008787557
-0.0137332175 -0.004041326 -0.0078198025 -0.0051168217 0.0023026995 0.0012408582 0.006190519 0.010429428
-0.010701409 0.006678209 -0.007820268 0.0044571073 0.009422871 -0.01710372 0.014758668 -0.00284048
-0.01236843 0.0072375666 -0.016463483 -0.0027728358 -0.0102962395 0.0009556033 -0.006764971 -0.004974719
-0.0016148811 -0.0058800485 0.004384863 3.8763457e-05 -0.013781742 0.01265407 0.0006177571 0.005928612
0.00708852 0.009759808 -0.007164377 0.010952649 -0.0034260887 -0.021036591 -0.00025726156 0.014388442
0.0014379994 0.0076928632 -0.0016288206 -0.00058478204 0.0073652514 -0.017762728 0.004375724 0.0015829279
-0.003435736 -0.00030738156 6.623672e-05 0.01547243 0.006408958 -0.007586335 -0.0074784807 0.0077365246
0.019488996 -0.0028298425 0.0019350126 -0.020385493 0.0060308003 -0.012975756 0.008401741 0.011246443
-0.006275502 -0.0060054963 -0.010501802 0.012783919 -0.0054100305 -0.009922654 0.0011474146 -0.0048175873
-0.0003422264 0.0065586297 0.004407134 -0.009052403 -0.006445896 -0.0108612 0.005870196 -0.0055294824
0.013587098 -0.006348173 -0.016350208 0.005396517 -0.003286824 0.01369985 -0.0063993935 -0.0027661473
-0.013290316 -0.0070999144 0.00787545 -0.021739535 0.005539624 0.0013417826 -0.005213949 0.006889769
-0.003490591 -0.014689623 -0.0025904234 0.0023398327 -0.004892348 0.0064903884 -0.00060588267 -0.0067364443
0.012577085 -0.010588794 -0.003915884 0.010778056 0.00089691236 0.00016559026 -0.0033112846 0.008719786
0.005429655 -0.005614662 -0.0066805296 -0.0051232437 -0.0072685587 -0.00026378504 0.015619428 -0.01228984
-0.009049106 0.00053986715 -0.006972967 0.0033021797 0.0071321386 -0.016470082 -0.016531797 0.0054706302
0.010927451 0.008654471 -0.0009384655 0.0012363693 0.007974203 0.004216965 -0.0097042555 0.021417286
-0.0022428406 -0.02131701 -0.009984985 -0.026745653 -0.006109307 -0.0015565493 0.0062367152 -0.004868485
0.00091953314 -0.012133887 0.002508691 -0.0069896244 0.0073500765 -0.0048665497 0.009064086 -0.0086634755
-0.009432449 -0.0004985275 0.0011471402 0.0029278782 -0.0004958826 -0.0023592343 0.012435036 -0.014989863
0.0070696087 0.0055304896 0.0050220564 0.004532381 -0.0034720753 -0.0040526306 0.004289055 -0.0012652044
-0.0062188073 0.00021112389 -0.0020524617 -0.0028554867 0.0072617014 0.0049144397 0.006866186 -0.0048937295
0.0005133404 6.932091e-05 0.0123975435 -0.0013636306 0.008664258 0.0035853845 -0.012849938 -0.00049909763
0.0012800592 0.014819228 -0.0024756237 0.00914944 0.012323929 0.0037054236 -0.00062024343 0.013377185
-0.00019267072 -0.010772915 -0.019048765 -0.0018341759 -0.0016485401 -0.0042018383 0.0072106756 -0.0003051042
-0.0032612619 -0.010607561 -0.003731644 0.017622948 -0.002553726 0.0017120063 0.0030418714 0.009476498
-0.005880023 0.016227392 -0.0066662207 0.009452727 0.007328495 0.0054583256 0.0016597828 0.0056432765

action_model._discrete_distribution.branches.1.bias f4 [3]
00000000: 4290 38b9 1497 90ba ec66 6a3a
-0.00017601348 -0.0011031353 0.0008941728

action_model._discrete_distribution.branches.2.weight f4 [3, 128]
00000000: 2418 37ba 06ae bc39 1e2b 823a d2ad 28bb
00000010: 326f 923b 5684 083a 4afd 3b3c 4a2f 4bbc
00000020: 8012 ccbb b190 7b3c bb4d 96b8 ac18 233a
00000030: 3a22 6cbc b242 9abb b408 b8bc 2eef c5bb
00000040: e36e 0cbc 4356 1b3c 80e9 98ba e9d2 1c3c
00000050: 91a0 a339 b89a 833c 1d4f d03b 0e89 4f3c
00000060: d132 44bb 5ba1 3b3b f9ca 3dba 6cd6 7dbb
00000070: 4cfa 06bb ec58 8abb 2172 a5bc 9fb3 f7bb
00000080: 3251 c2ba a4af fa39 6647 88bb f082 5d3a
00000090: 9ac6 6f3b 3209 6f3b 49a4 293c b904 21bc
000000a0: f58b d63b c249 7dbb 2dc4 f33a ca7b c7bb
000000b0: a6d5 473b 6cf4 c5bb 0556 06bb 664a 8fbb
000000c0: ed8c cd3a 3b10 52bb e1b8 223c a117 2f3a
000000d0: 4903 8bbb 414a 59bc 7aed d73b bd57 a43b
000000e0: d877 e73b ce5c 2d3c 18fd 6abc f16d d339
000000f0: 60bb 0b3c 2e5b 92bb a43d 283c f995 52bb
00000100: 77d7 80bb cd30 763a e088 af39 cbad 35bc
00000110: c4d2 eeba f8bc 083a 8d0e c63b 907e 73b9
00000120: ce33 1b3c bc03 b5b9 1e46 59bb 225d 373b
00000130: 7af7 673b b624 f73b 6bd5 1b3b 2de8 323b
00000140: 6351 03bc 79d0 063c 3167 163c ddb8 3abc
00000150: f786 2bbc 83eb 2d3c 3eb5 80bc 9f3d dabb
00000160: cf28 603c 99bf 10bc e27c 8dbb a813 c1ba
00000170: df7b 11bc 6474 4ebc 9ff7 07bb 8894 62bc
00000180: 7f46 e8bb d4ea 24bc a361 1cbc 108b 3c3c
00000190: a1ec 0bbc b5c5 4d3b 7f3f 003b 96e6 213b
000001a0: dcca b8ba abc6 5fbc 2235 ddbb 6271 e03b
000001b0: 7df1 02bc 4315 7a39 d2f5 92bb 0c8b 7cbc
000001c0: bb44 1e3c 31b7 16bc 48e1 b7bb 7377 abbb
000001d0: 20d5 56ba 4efe e9bb 8527 083c a064 e83b
000001e0: 08be 3b3b c95c 70bb 9a8e 093b ae53 3c3b
000001f0: e0c2 05bb 0c9a c43a 83b0 98bb 3e81 1f3c
00000200: 4836 e53b 033b 75bb 0427 483b 276e 09bb
00000210: 1f34 14bc 2087 b43b 673f 983b 997e f7bb
00000220: 5496 103c 90b2 3bbc 79f4 f6ba 7bdd 263c
00000230: 0b25 ddbb 0855 10bc 5377 b8bb 3857 d1bc
00000240: 02a9 9e3b ea2f 383c 0fd5 a33b 6f49 063c
00000250: 10b1 38bb 8bd6 99bb 876a 863a 79d8 403b
00000260: 435b 20bc 5007 80bb 9250 8dbc 7414 2dbc
00000270: 4097 2c3c f6b8 f139 3184 3cbc 0f41 123c
00000280: 5f45 4ebb 6bcc 1aba f102 1d3c c85a 42ba
00000290: 54b9 2e3c daae 1e3c 5f41 7ebb dfab b63b
000002a0: f900 9fbc 1557 8abb 2262 00bb c884 d43a
000002b0: 5adf 203c f236 cb3b 4ee5 8e3b 0480 34bc
000002c0: ff2f 573c b586 923b 80b6 0e3c 8176 293c
000002d0: 04a6 453c 7cfc 99bb 79b7 12bc f137 1bbc
000002e0: d5e3 cf3b fad5 d437 ab86 723c 58b5 783b
000002f0: 36b6 39bc 6c8b 113c dc98 93bb a5b1 17ba
00000300: dd5e 26bc 4338 d8bb 0b4b 39bc a291 ab3b
00000310: 1244 44bb 376e 52bb b4dd 18bc 3261 2a3c
00000320: 8bbd c3bb cb68 73bc ff26 b03b f3c1 d9bb
00000330: 55f7 d63a bbc8 5f3c 2623 6bbc a8ed 9d3c
00000340: 35bc cebc ab7c 093c b28b e43b feb7 12bc
00000350: a991 83b9 9139 363c 2886 efbb edb2 ed3b
00000360: 1b0e aebb e260 3bbc 3349 1c3b 1676 d83b
00000370: 7c4a 303c 62d3 f9ba 1e50 323c ad81 74bc
00000380: 37ce 93bc 1a58 d93b fe2c 8fbc c7e3 883c
00000390: 1dba 19ba 735c 683b 1bc0 1d3c 8745 81bb
000003a0: 7ba7 af3b 5771 8ebb 061a 8fbb da57 39bb
000003b0: 3619 b939 0945 49bc 18ef 273b 6efa 1c3c
000003c0: d88e cd3b 46fc b0b7 25cf 013a 87e8 133c
000003d0: 2681 c63b 040f 97bb a74e d43b 0dfa 573c
000003e0: 42ec 783b 0e6e 5b3b 3fb2 fc3b 970d a2ba
000003f0: 17fc 47bb 0442 62bc 554b e23a 486a 613b
-0.0006984493 0.00035987812 0.0009931063 -0.002573837 0.004468822 0.0005207708 0.011473963 -0.012401411
-0.0062277913 0.015354321 -7.167036e-05 0.0006221633 -0.014412457 -0.0047076577 -0.022465087 -0.0060404753
-0.008571359 0.009481016 -0.0011666268 0.009571769 0.00031209414 0.016064987 0.0063570873 0.012666954
-0.0029937516 0.002863011 -0.0007240023 -0.0038732542 -0.0020595966 -0.004222026 -0.020196022 -0.0075592543
-0.0014825223 0.00047814578 -0.004158902 0.0008449992 0.0036586882 0.0036473987 0.01035411 -0.009827786
0.006547446 -0.00386487 0.0018597894 -0.006087755 0.0030492335 -0.0060411002 -0.002049805 -0.0043728827
0.0015682258 -0.003205313 0.009931774 0.0006679241 -0.004242335 -0.013262332 0.0065895887 0.005015342
0.007063847 0.010581208 -0.014342569 0.0004032697 0.00852856 -0.004466436 0.0102686025 -0.0032132848
-0.0039319354 0.0009391427 0.0003348058 -0.011088799 -0.0018220772 0.0005216147 0.006044215 -0.00023221434
0.0094728 -0.00034525793 -0.0033153365 0.0027979095 0.003539531 0.007542218 0.002377833 0.0027299032
-0.00801501 0.008228415 0.009179876 -0.011396614 -0.01046919 0.010615232 -0.015711423 -0.006660178
0.0136816045 -0.008834743 -0.0043178657 -0.001473059 -0.008879631 -0.012600992 -0.002074696 -0.013829358
-0.007088482 -0.010065753 -0.009544763 0.011507764 -0.008540303 0.003139836 0.0019569097 0.002470409
-0.0014098543 -0.013658206 -0.0067507187 0.006849454 -0.007992146 0.00023849779 -0.0044848705 -0.015414011
0.009659941 -0.00919895 -0.0056115724 -0.0052327453 -0.000819521 -0.007140911 0.008310203 0.0070920736
0.0028647203 -0.0036676398 0.0020989538 0.00287364 -0.0020410344 0.0014999523 -0.0046597137 0.009735404
0.006994996 -0.0037419207 0.0030540833 -0.0020970197 -0.00904563 0.005509272 0.00464623 -0.0075529334
0.0088249035 -0.011456147 -0.0018841169 0.010184641 -0.0067488006 -0.0088093355 -0.005629459 -0.025554284
0.0048419246 0.011241892 0.004999764 0.008196219 -0.002818171 -0.004694765 0.0010255136 0.0029425903
-0.0097873835 -0.0039071217 -0.017250333 -0.010563958 0.010534108 0.0004610491 -0.011506126 0.008926644
-0.0031474454 -0.00059050944 0.009583221 -0.000741404 0.010664303 0.009685243 -0.0038796288 0.005574688
-0.019409643 -0.004221807 -0.0019589742 0.0016213888 0.009818876 0.0062016184 0.0043608313 -0.011016849
0.013134002 0.0044716247 0.008710504 0.010343195 0.012063507 -0.004699288 -0.008954876 -0.009473787
0.0063442984 2.537201e-05 0.014802615 0.0037949886 -0.011334946 0.008883338 -0.0045043062 -0.0005786664
-0.010154453 -0.006598504 -0.011309396 0.0052358666 -0.00299478 -0.003210915 -0.009330202 0.01039915
-0.005973523 -0.014856528 0.0053757424 -0.006645435 0.0016400615 0.013658698 -0.014351642 0.019278362
-0.025236228 0.00839154 0.006974661 -0.008955 -0.00025094792 0.011122123 -0.007309694 0.0072539956
-0.00531174 -0.011436673 0.002384734 0.006605874 0.010759946 -0.0019060189 0.010883359 -0.014923495
-0.018042667 0.006632817 -0.017477509 0.016710175 -0.000586422 0.0035455495 0.009628321 -0.003945056
0.0053605414 -0.0043470073 -0.004367116 -0.0028281123 0.00035304733 -0.012284526 0.0025624689 0.009581191
0.006273132 -2.1098309e-05 0.00049518264 0.009027607 0.006057876 -0.0046099443 0.0064791027 0.013182175
0.0037982618 0.0033482346 0.0077116783 -0.0012363669 -0.0030515247 -0.013809685 0.0017264882 0.0034395624

action_model._discrete_distribution.branches.2.bias f4 [3]
00000000: 4fad e039 fc86 e8b9 97cb dab7
0.00042853734 -0.0004435106 -2.6082429e-05

action_model._discrete_distribution.branches.3.weight f4 [3, 128]
00000000: cd02 28bc de92 b6bb 22cf 5b3c bc7c b4ba
00000010: 74e4 e1bb dca7 dbba 7536 463c c7ed 7a3c
00000020: 8d77 f2bb ba1e 273b c11f 413b 3ad2 903c
00000030: fd7f a63b 09de 7c3b 3dc3 1abc 3bd1 173c
00000040: 3531 f2b9 250c 8a3a d5a7 fd3a 1ada 8d3c
00000050: cafb 35bc 7435 0d3b 89ef bdbb 1b67 9339
00000060: 3c8d 633c 99e2 bc3b 0839 26bb 806b a9ba
00000070: a052 3e3c 3e29 cebb 6c07 3b3c a34b 12bc
00000080: 54a5 a83b eb86 da3a baf6 82ba 0237 3f39
00000090: 65ad 46bc 355c 073c 9e09 c03b 9b51 3b3b
000000a0: bda8 04ba 0d6d 0cbc e686 95bb 100f 433c
000000b0: bcc1 84b9 9afa 6e3b 6967 f1bb 8cca ebbb
000000c0: 9e03 e83b 8850 373c 49aa 03bc 0047 98ba
000000d0: 370b 233a 88af b1bb 827b 5bbc 0741 03bb
000000e0: 2fda fc3a 0d8c 42bb d9c0 e7bb 30ea 0ebc
000000f0: f893 0abc f52d a3bb 75fa e83a 5a14 60bc
00000100: 6955 4539 eb31 65bc 435d debb f0e2 ad3b
00000110: 92d3 94bb f3f4 e2ba 99a9 493c 9323 d13b
00000120: fd46 26bc 35cf 1fbc 2045 4cbc f93f 983b
00000130: 2b26 543b fab8 543c 95a8 2ebc 7816 f0bb
00000140: bccf 65b8 18b9 ceba 3311 843c f347 7cbc
00000150: 0d71 8b3c d092 8c3b 4a61 f93b 8a0f 583a
00000160: c095 c53c b170 e8bb a9bc 54bb be6f a539
00000170: 8922 0f3b c256 d73b 4b28 3cbc fe43 31bb
00000180: 1cec 51bb 9c2c 843c 5ce3 683b 060a 483c
00000190: 99df 09bc d686 e03b 3b24 883b 2948 2abb
000001a0: 9b6c 96bc e3e2 49ba 68d7 7cbb 1bea aebb
000001b0: e339 e63b cd5e eabb 9d86 7c3b 4f52 463c
000001c0: 349e 843a 8223 92ba 2092 583a ad2a 83bb
000001d0: 7d39 193b db80 96ba 5c00 243c eb0c 31bc
000001e0: 2307 263c a0a8 96bb 33c9 6a3b c5ba 803b
000001f0: defb ae3a 44b8 f33b 8c72 5d3c 5b8b dabb
00000200: d5a2 9e3b 7138 8b3b f72e 3cbc 122f 933a
00000210: 3c9c 073b 59ae 12bc ae3c 293c 7467 7a3b
00000220: 0378 e4b9 7b20 df3b 5d77 063a 377a 403c
00000230: b878 f43a 7447 00bb fafe 28bc 07f5 53bc
00000240: 042c 31b8 91e8 773c 0ec2 733b 0b10 33bc
00000250: cbfa 093c ffee 0b3c 80ce 74bb 5310 863c
00000260: 6b36 2aba f760 4dbc 1406 e03b eef8 333c
00000270: dd9b 633c 6d34 b0bb fbf6 033b bf9a 813c
00000280: 8ffe bc3a c598 183b 0409 ce3b ae72 8cba
00000290: 0c69 723a 7193 603c 5e66 88bc 9ea6 243c
000002a0: b427 e4ba 699a 113c ce56 86bb 1074 103c
000002b0: 4d6b f1bb 62b7 14bc 03b7 0aba b713 fe3b
000002c0: c7e3 a4bb 3189 21bb 9e20 1fbc f70d 7339
000002d0: 5348 113c 71f8 20bc 383a 4ebc f525 5139
000002e0: c5b7 453b feac ee3b 5884 00bc 2a7e 70bb
000002f0: 4d3d e23b f782 52bb 42e2 3ebc 26d7 2c3b
00000300: c791 e73b 75e2 19bc 117b 01bb 2359 ebbb
00000310: dcb6 dc3b e8a3 073b 8b17 c0ba f2ea 2f3c
00000320: b25a 4b3c a5a3 703a 70e2 933a 2a78 eb3a
00000330: 9148 9dba 10de 243b 913d cd3b 9f12 273c
00000340: dea7 9fba 961c e0bb f000 ad3a 26c0 a2bb
00000350: 734b 5cbb 2e8e 043b 147c 09bc 81fa 623a
00000360: 214f 0ebb a3a3 863c 08e3 313c d61d 4ebc
00000370: 70c4 c0b8 7ce5 4ebc 5cd6 6abc 8aff 983b
00000380: 02ec 13bc cdd6 613c b2b8 63bc c138 f7bb
00000390: cd89 6abc 6cf7 0abc 7581 36bb b24f 34bc
000003a0: 96c8 3c3c 73c4 473c 0bd9 9cbb cdba 1c3b
000003b0: 2311 00bc 62f9 3e3b 5e98 483c 02c2 69bb
000003c0: 9600 283c c378 4c3c 300e e9b9 aa37 8b3a
000003d0: 106e 97b9 7f5d 1ebc 7569 51bc 62cc 51bc
000003e0: dbc5 6b3c 2706 cbba 7180 48bc a528 98bc
000003f0: 09f8 61bc 78e9 1e3c d5d7 c73a f43c 2cbc
-0.010254574 -0.005571707 0.0134160835 -0.0013770084 -0.006893689 -0.00167584 0.0120979445 0.01531548
-0.0073995055 0.0025500492 0.002946839 0.017678369 0.0050811754 0.0038584492 -0.0094459625 0.009266193
-0.000461945 0.0010532184 0.0019352386 0.017315913 -0.0111073945 0.0021546753 -0.005796377 0.00028114844
0.013888653 0.0057643172 -0.0025363583 -0.0012925714 0.011616379 -0.0062915375 0.011415344 -0.008929166
0.005146662 0.0016672289 -0.0009991743 0.00018235671 -0.012126301 0.00826173 0.0058605215 0.0028582576
-0.00050605444 -0.008570922 -0.0045632003 0.011905447 -0.00025321345 0.0036465288 -0.007367064 -0.0071957763
0.0070805093 0.011188634 -0.008036205 -0.0011617839 0.00062196277 -0.0054225363 -0.013396146 -0.0020027773
0.0019291098 -0.0029685528 -0.00707255 -0.008722827 -0.00845813 -0.0049798437 0.0017774837 -0.013676727
0.00018819202 -0.013988952 -0.00678602 0.005306594 -0.0045418227 -0.0017315432 0.012308502 0.0063824146
-0.010148761 -0.009753992 -0.012467653 0.004646298 0.0032371383 0.012983555 -0.01066031 -0.0073268972
-5.4791322e-05 -0.0015771715 0.016121482 -0.015398013 0.01702168 0.0042899624 0.0076104747 0.00082420616
0.024119258 -0.007093512 -0.0032461083 0.00031554507 0.0021840653 0.0065716216 -0.011484216 -0.0027048583
-0.0032031601 0.016134553 0.0035535907 0.012209421 -0.008415126 0.006852011 0.0041547096 -0.0025982952
-0.018362334 -0.000770135 -0.003858054 -0.005337966 0.0070259436 -0.0071524144 0.0038532384 0.012104585
0.0010117949 -0.0011149498 0.00082615204 -0.00400289 0.0023380213 -0.0011482494 0.010009851 -0.010806303
0.010133537 -0.0045977384 0.003582549 0.0039285147 0.0013350209 0.0074377377 0.01351608 -0.0066694445
0.0048411884 0.0042486717 -0.011485807 0.0011229238 0.0020692488 -0.0089527005 0.010329409 0.0038208636
-0.00043576965 0.006809292 0.0005129481 0.011747888 0.00186517 -0.001957384 -0.010314697 -0.012936837
-4.224108e-05 0.015131132 0.0037194523 -0.010929118 0.00842161 0.008540868 -0.003735453 0.016365206
-0.0006493094 -0.012535325 0.006836662 0.010984642 0.013892141 -0.0053773434 0.0020136226 0.015820859
0.0014419126 0.0023284417 0.006287696 -0.001071533 0.00092472206 0.013707028 -0.016650375 0.01004949
-0.0017406852 0.008886912 -0.0040997034 0.008816734 -0.0073675276 -0.009076925 -0.0005291553 0.007753815
-0.005032036 -0.0024648423 -0.009712366 0.00023179488 0.008867341 -0.009824858 -0.012587123 0.00019945933
0.003016935 0.007283806 -0.007844053 -0.0036696293 0.0069042803 -0.0032121518 -0.011650624 0.0026373356
0.0070669386 -0.0093923705 -0.0019757191 -0.007182257 0.0067356657 0.002069706 -0.0014655454 0.010737168
0.01241176 0.00091796584 0.0011282694 0.0017964889 -0.0011999776 0.0025156774 0.006263443 0.010197311
-0.0012180766 -0.006839345 0.0013199132 -0.0049667535 -0.0033614307 0.0020226347 -0.008391399 0.0008658544
-0.0021714645 0.01643545 0.010857351 -0.012580356 -9.191863e-05 -0.0126279555 -0.014333334 0.0046691345
-0.009028437 0.013784123 -0.013899015 -0.0075446074 -0.014315081 -0.008481842 -0.0027848158 -0.011005329
0.011522433 0.012192833 -0.0047866157 0.0023915053 -0.007816586 0.0029140343 0.012243358 -0.0035668616
0.010254046 0.012479964 -0.00044451794 0.0010621448 -0.00028882967 -0.009665846 -0.012781491 -0.012805076
0.014390434 -0.0015489504 -0.012237654 -0.018574068 -0.013792046 0.009699218 0.0015246818 -0.010512579

action_model._discrete_distribution.branches.3.bias f4 [3]
00000000: 25e7 5eba 4208 7f39 122d 0d39
-0.0008503071 0.00024321771 0.00013463598
