ML Agents Play Unity/Agent Training/results/hb05/RubyBasic/checkpoint.pt (torch, 182298 bytes, 18 tensors)

discrete_act_size_vector f4 [1, 4]
0	0x40400000	3.0
1	0x40400000	3.0
2	0x40400000	3.0
3	0x40400000	3.0

network_body._body_endoder.seq_layers.0.weight f4 [128, 32]
0	0x3cf7479f	0.030185519
1	0x3d70f47d	0.058826912
2	0xbec8586d	-0.39129964
3	0xbc50c6bf	-0.012742697
4	0x3ddcdb05	0.10783962
5	0xbe92086b	-0.28522047
6	0x3d60fdb0	0.054929435
7	0x3ddd7c14	0.10814682
8	0x3dd2ed52	0.102991715
9	0x3e0870a0	0.13324213
10	0x3bf3a556	0.007435481
11	0x3e97636e	0.29568046
12	0xbdc72a1e	-0.0972483
13	0xba8cd298	-0.0010743914
14	0x3e384c9c	0.17997974
15	0xbe5076e8	-0.20357859
16	0xbe1e2027	-0.15441953
17	0x3d0fb7ae	0.03508728
18	0xbdfcbb16	-0.12340371
19	0xbf170238	-0.5898776
20	0x3d15b863	0.036552798
21	0xbd90dc62	-0.07073285
22	0x3badb451	0.0053010364
23	0x3e143e68	0.14476931
24	0xbdfb49db	-0.12269946
25	0x3d6d1981	0.05788565
26	0x3e8bcb0d	0.27303353
27	0x3c587a9c	0.013212826
28	0xbe3571b7	-0.1771916
29	0x3e929bcf	0.28634498
30	0xbd155507	-0.03645804
31	0xbe8bc2af	-0.2729697
32	0x3e0b0d5a	0.13579312
33	0x3ed2f91a	0.41205674
34	0x3e42926e	0.19001171
35	0xbd218dfd	-0.03944205
36	0x3d94dc7e	0.07268618
37	0xbe90c674	-0.28276408
38	0x3e39fcd6	0.18162856
39	0xbde7f1a4	-0.11325386
40	0x3e992746	0.29912776
41	0x3e88a791	0.26690343
42	0xbe556c9f	-0.20842217
43	0xbe1cc288	-0.15308583
44	0xb94874a3	-0.00019116937
45	0xbe4bd2c9	-0.19904627
46	0x3d8ffb9d	0.07030413
47	0xbd155394	-0.03645666
48	0x3d0c6b0a	0.034281768
49	0x3c54bb4f	0.012984111
50	0xbde3c97e	-0.11122416
51	0x3e312703	0.17300038
52	0x3de82f1a	0.11337109
53	0xbe5a2051	-0.2130139
54	0xbe439308	-0.19099057
55	0xbe7e222d	-0.24817725
56	0x3d32fb9b	0.04369698
57	0x3ea4d12a	0.3219083
58	0xbe9472f3	-0.2899395
59	0xbca47e5c	-0.020079784
60	0x3e80a8ac	0.25128686
61	0xbeac885e	-0.3369779
62	0x3e46e285	0.19422348
63	0xbdf025ee	-0.117259845
64	0xbd189734	-0.037253574
65	0x3dab21a2	0.08356024
66	0xbe67901d	-0.22613569
67	0x3d378b00	0.044810295
68	0x3ddbe7d9	0.10737581
69	0xbe58d9e7	-0.21176873
70	0x3da6930f	0.08133518
71	0x3e834a65	0.25642696
72	0x3e42284d	0.18960686
73	0xbe3400bb	-0.17578404
74	0x3e4160ea	0.18884626
75	0x3e3ce22d	0.18445654
76	0xbe33e270	-0.17566848
77	0xbddc70ed	-0.107637264
78	0xbd82cff7	-0.063873224
79	0xbe73ca1f	-0.23807572
80	0x3cd7e337	0.026353462
81	0xbcb22196	-0.02174453
82	0xbd52287f	-0.05130815
83	0x3ec3f1ae	0.38270324
84	0xbd1a8260	-0.03772199
85	0x3d80dcd2	0.06292118
86	0xbe3b8c72	-0.18315294
87	0x3e258f07	0.16167842
88	0xbdb81a75	-0.08989421
89	0x3d417300	0.047228813
90	0x3e013835	0.12619098
91	0x3c7d01d5	0.015442331
92	0x3d2940d3	0.041321587
93	0x3ba8df0b	0.005153542
94	0xbcbd7c0a	-0.023130435
95	0xbea3e663	-0.3201171
96	0xbdb0bda8	-0.08629924
97	0x3df3c841	0.1190343
98	0xbd1a0c9c	-0.03760968
99	0xbeb0fc56	-0.34567517
100	0x3d532dd1	0.051557366
101	0x3d066cb8	0.032818526
102	0x3e47e839	0.1952218
103	0xbd2371f3	-0.039903592
104	0xbe5e911f	-0.21735047
105	0x3dd4b0e8	0.10385305
106	0xbe73453e	-0.23756883
107	0x3e12edc2	0.1434851
108	0xbe90c243	-0.2827321
109	0x3d54b0af	0.05192631
110	0xbd323737	-0.04350969
111	0x3e550611	0.20803095
112	0x3c129b3d	0.0089481445
113	0xbe3e0602	-0.1855698
114	0x3ee96a2b	0.45588812
115	0xbec9e23f	-0.39430425
116	0xbe8bbe59	-0.2729366
117	0xbe447312	-0.19184521
118	0x3e88ecce	0.26743168
119	0x3c85854f	0.016298918
120	0xbe0f5f78	-0.14001262
121	0x3dfce2fc	0.12347981
122	0x3ddd90aa	0.10818608
123	0x3e6c27a1	0.23061992
124	0x3e0f3343	0.13984399
125	0xbde28594	-0.11060634
126	0x3df27fd1	0.11840785
127	0xbe4209ea	-0.18949094
128	0x3e8312fa	0.25600415
129	0x3c8eeaee	0.017446008
130	0xbe7469a0	-0.23868418
131	0xbdf0baa7	-0.11754351
132	0xbd073dbc	-0.03301786
133	0x3c439b37	0.011938862
134	0xbcec6aaf	-0.028859464
135	0xbe6d4034	-0.23169023
136	0xbd97fedc	-0.074216574
137	0x3b45893b	0.003014161
138	0x3c37b857	0.011213384
139	0xbcb5f6e8	-0.02221246
140	0xbddebd2e	-0.10875927
141	0xbe676257	-0.22596107
142	0xbdb3f867	-0.08787613
143	0xbe989530	-0.2980132
144	0x3d595409	0.053058658
145	0x3d313bbf	0.04326987
146	0x3e76433e	0.24049088
147	0xbcd70461	-0.026247205
148	0x3ea91477	0.33023426
149	0x3d9ff5b9	0.0781054
150	0x3e8a7ac7	0.27046797
151	0xbe3fd9bc	-0.18735403
152	0x3e5a7e69	0.21337284
153	0x3d131381	0.035907272
154	0xbe392d54	-0.18083698
155	0x3e217720	0.15768099
156	0x3e126a0c	0.14298266
157	0x3e1aca64	0.15116268
158	0xbcc70374	-0.024293639
159	0x3ca9639a	0.020677377
160	0x3edee8ea	0.43537074
161	0xbe6a2d68	-0.22868884
162	0x3e596aad	0.212321
163	0xbe910180	-0.28321457
164	0x3da0db9e	0.07854389
165	0xbe0a21ef	-0.13489507
166	0x3e692279	0.22767057
167	0x3ea2e0b6	0.31812066
168	0xbbdbe784	-0.0067109484
169	0x3e72aabc	0.23697942
170	0xbd0c4a8b	-0.034250777
171	0xbe8b31f2	-0.27186543
172	0xbbc2b458	-0.005941909
173	0xbcf75a5d	-0.030194456
174	0xbe171c3f	-0.14756869
175	0x3e029a42	0.12754157
176	0x3e0e976d	0.13924952
177	0x3c34ade9	0.011027792
178	0x3dfacb3f	0.12245797
179	0xbd57da8f	-0.052698668
180	0x3e4093c0	0.18806362
181	0x3d283405	0.041065235
182	0x3e25b096	0.16180643
183	0xbd251513	-0.0403033
184	0xbd9e794b	-0.077379785
185	0xbe2d584d	-0.16928215
186	0x3e89813f	0.2685642
187	0x3ded4205	0.11584858
188	0xbde50e81	-0.11184407
189	0xbe2911bb	-0.1651067
190	0xbafe6b34	-0.0019410611
191	0xbe644366	-0.22291335
192	0xbe69122c	-0.22760838
193	0x3d6b56fc	0.057456
194	0xbe1d8066	-0.15381011
195	0xbe452922	-0.19253972
196	0x3bdc7ccb	0.0067287437
197	0xbb0ca30c	-0.0021459488
198	0xbcf19486	-0.029489767
199	0xbd5100e3	-0.051026236
200	0x3e8a2009	0.26977566
201	0x3d0f96a8	0.035055786
202	0xbe8dd18d	-0.27698937
203	0xbe2f0771	-0.17092682
204	0xbdb34eb2	-0.08755244
205	0xbded544a	-0.115883425
206	0x3e12c5de	0.14333293
207	0x3d67a751	0.05655605
208	0x3d3a54f1	0.045491163
209	0xbe837475	-0.25674787
210	0x3d46213e	0.048371546
211	0xbe50a63b	-0.20375912
212	0xbd5e71ba	-0.054307677
213	0x3e825e8f	0.25462767
214	0xbc906e2d	-0.01763066
215	0x3e9aeaba	0.30257207
216	0x3e4f66fc	0.20254129
217	0x3a7b2493	0.000958034
218	0xbd38113b	-0.044938307
219	0xbd202c4c	-0.039104745
220	0x3d1a5c1b	0.037685495
221	0x3eb61e32	0.35569912
222	0x3d55a047	0.052154806
223	0x3d1fcf24	0.039015904
224	0x3df078cc	0.1174179
225	0xbcf3b692	-0.029750142
226	0xbe95186d	-0.29120198
227	0xbe30a48d	-0.17250271
228	0xbeb57ce9	-0.3544686
229	0x3dd47889	0.10374553
230	0x3e82772d	0.2548155
231	0x3e1336ac	0.14376324
232	0x3db50436	0.08838694
233	0x3df8eef0	0.12154949
234	0x3e3d42e9	0.18482555
235	0x3e3d1167	0.1846367
236	0x3e6c759c	0.2309174
237	0xbe2cc95b	-0.16873686
238	0x3e38d667	0.18050538
239	0x3daf539b	0.08560868
240	0x3e54015e	0.20703647
241	0xbd840f82	-0.064482704
242	0xbd5f6c0d	-0.054546405
243	0x3e4b926c	0.19880074
244	0xbe84095d	-0.25788394
245	0xbdaf7fda	-0.085693076
246	0x3e0e1390	0.1387465
247	0x3da133de	0.07871221
248	0x3e8101b3	0.2519661
249	0x3dceee2e	0.10104023
250	0xbb78f805	-0.0037989628
251	0x3e954f97	0.29162285
252	0xbe370926	-0.17874584
253	0x3e471294	0.1944068
254	0xbe01d243	-0.12677865
255	0x3e55ecd8	0.2089113

network_body._body_endoder.seq_layers.0.bias f4 [128]
0	0x00000000	0.0
1	0x00000000	0.0
2	0x00000000	0.0
3	0x00000000	0.0
4	0x00000000	0.0
5	0x00000000	0.0
6	0x00000000	0.0
7	0x00000000	0.0
8	0x00000000	0.0
9	0x00000000	0.0
10	0x00000000	0.0
11	0x00000000	0.0
12	0x00000000	0.0
13	0x00000000	0.0
14	0x00000000	0.0
15	0x00000000	0.0
16	0x00000000	0.0
17	0x00000000	0.0
18	0x00000000	0.0
19	0x00000000	0.0
20	0x00000000	0.0
21	0x00000000	0.0
22	0x00000000	0.0
23	0x00000000	0.0
24	0x00000000	0.0
25	0x00000000	0.0
26	0x00000000	0.0
27	0x00000000	0.0
28	0x00000000	0.0
29	0x00000000	0.0
30	0x00000000	0.0
31	0x00000000	0.0
32	0x00000000	0.0
33	0x00000000	0.0
34	0x00000000	0.0
35	0x00000000	0.0
36	0x00000000	0.0
37	0x00000000	0.0
38	0x00000000	0.0
39	0x00000000	0.0
40	0x00000000	0.0
41	0x00000000	0.0
42	0x00000000	0.0
43	0x00000000	0.0
44	0x00000000	0.0
45	0x00000000	0.0
46	0x00000000	0.0
47	0x00000000	0.0
48	0x00000000	0.0
49	0x00000000	0.0
50	0x00000000	0.0
51	0x00000000	0.0
52	0x00000000	0.0
53	0x00000000	0.0
54	0x00000000	0.0
55	0x00000000	0.0
56	0x00000000	0.0
57	0x00000000	0.0
58	0x00000000	0.0
59	0x00000000	0.0
60	0x00000000	0.0
61	0x00000000	0.0
62	0x00000000	0.0
63	0x00000000	0.0
64	0x00000000	0.0
65	0x00000000	0.0
66	0x00000000	0.0
67	0x00000000	0.0
68	0x00000000	0.0
69	0x00000000	0.0
70	0x00000000	0.0
71	0x00000000	0.0
72	0x00000000	0.0
73	0x00000000	0.0
74	0x00000000	0.0
75	0x00000000	0.0
76	0x00000000	0.0
77	0x00000000	0.0
78	0x00000000	0.0
79	0x00000000	0.0
80	0x00000000	0.0
81	0x00000000	0.0
82	0x00000000	0.0
83	0x00000000	0.0
84	0x00000000	0.0
85	0x00000000	0.0
86	0x00000000	0.0
87	0x00000000	0.0
88	0x00000000	0.0
89	0x00000000	0.0
90	0x00000000	0.0
91	0x00000000	0.0
92	0x00000000	0.0
93	0x00000000	0.0
94	0x00000000	0.0
95	0x00000000	0.0
96	0x00000000	0.0
97	0x00000000	0.0
98	0x00000000	0.0
99	0x00000000	0.0
100	0x00000000	0.0
101	0x00000000	0.0
102	0x00000000	0.0
103	0x00000000	0.0
104	0x00000000	0.0
105	0x00000000	0.0
106	0x00000000	0.0
107	0x00000000	0.0
108	0x00000000	0.0
109	0x00000000	0.0
110	0x00000000	0.0
111	0x00000000	0.0
112	0x00000000	0.0
113	0x00000000	0.0
114	0x00000000	0.0
115	0x00000000	0.0
116	0x00000000	0.0
117	0x00000000	0.0
118	0x00000000	0.0
119	0x00000000	0.0
120	0x00000000	0.0
121	0x00000000	0.0
122	0x00000000	0.0
123	0x00000000	0.0
124	0x00000000	0.0
125	0x00000000	0.0
126	0x00000000	0.0
127	0x00000000	0.0

network_body._body_endoder.seq_layers.2.weight f4 [128, 128]
0	0xbe049571	-0.12947632
1	0xbddc85ef	-0.10767733
2	0xbd5c9196	-0.05384978
3	0x3d1ef84e	0.03881102
4	0xbe62be53	-0.22142915
5	0xbc78d093	-0.015186447
6	0x3e111d53	0.14171343
7	0xbe173df9	-0.14769734
8	0x3da748d4	0.08168188
9	0x3ded701c	0.11593649
10	0x3d0f9a15	0.035059053
11	0xbdd112f9	-0.10208697
12	0x3d3f5c08	0.046718627
13	0xbb7a60d9	-0.0038204698
14	0xbd98d8bf	-0.07463216
15	0xbe109eb0	-0.14123034
16	0xbcf8b10a	-0.030357856
17	0xbc98ffeb	-0.018676719
18	0x3c31aa79	0.0108438665
19	0xbcc384ab	-0.023866972
20	0xbd3a98c1	-0.045555834
21	0xbd1ac020	-0.03778088
22	0x3c0260cc	0.0079576485
23	0x3d0a36bf	0.033743616
24	0x3e24ec14	0.16105682
25	0x3adc4623	0.001680557
26	0x39a5829c	0.00031568564
27	0xbd0b3e4f	-0.03399497
28	0xbd8a3c34	-0.06749764
29	0xbe3ed430	-0.1863563
30	0x3d300a56	0.042978607
31	0x3d82b475	0.06382076
32	0xbbac41ad	-0.0052568526
33	0xbda4ceab	-0.08047231
34	0xbd013658	-0.031545967
35	0xbc0dadb6	-0.008647373
36	0xbd9dd29a	-0.07706185
37	0x3d8d0f3e	0.06887673
38	0x3d4e733d	0.05040287
39	0xbd1be31b	-0.03805838
40	0xbd8209c4	-0.06349519
41	0xbd4d4f2b	-0.05012433
42	0x3df87233	0.12131157
43	0xbd4dbd2e	-0.050229244
44	0x3df5798d	0.119860746
45	0xbd13f49c	-0.03612195
46	0x3cbc6b7b	0.02300047
47	0xbdbe5c79	-0.092949815
48	0x3ac6abe3	0.0015157427
49	0x3d6531de	0.05595576
50	0xbe7e8d50	-0.24858594
51	0x3cb70308	0.022340313
52	0xbd31d56e	-0.043416433
53	0x3d9a28d5	0.07527319
54	0xbde8467e	-0.1134157
55	0xbcb9e3dc	-0.02269166
56	0xbd91043d	-0.070808865
57	0x3e8b7090	0.27234316
58	0x3d2980f2	0.041382737
59	0xbcddf69a	-0.027095128
60	0xbcae9564	-0.02131147
61	0x3e6ae233	0.2293785
62	0xbd7d8296	-0.061892115
63	0xbd433832	-0.047661014
64	0x3bc3dae0	0.0059770197
65	0xbdf0872b	-0.11744531
66	0xbe29bb09	-0.16575254
67	0xbcae6540	-0.021288514
68	0x3d9cc296	0.07654302
69	0x3deebf00	0.11657524
70	0x3c7c86ce	0.015412999
71	0x3d8ba09f	0.068177454
72	0x3d399318	0.045306295
73	0xbdc20632	-0.09473838
74	0xb97f3101	-0.0002433695
75	0x3d25b27d	0.040453423
76	0xbda42df9	-0.08016581
77	0xbd8343e9	-0.06409437
78	0x3cd5d10c	0.026100658
79	0x3d463c27	0.04839721
80	0xbe01c258	-0.12671793
81	0xbce2170c	-0.02759888
82	0xbdd039c8	-0.10167271
83	0xbd0ced85	-0.034406204
84	0x3de5abc5	0.11214403
85	0xbe1254c7	-0.14290152
86	0x3d9e837d	0.07739923
87	0xbd5d4692	-0.05402238
88	0xbb528125	-0.0032120433
89	0xbe8b022d	-0.27150097
90	0x3e34f79e	0.17672583
91	0x3ca2c327	0.019868447
92	0xbc392643	-0.011300626
93	0xbd8ccdab	-0.068751656
94	0x3d0a5d2a	0.033780254
95	0xbbf27291	-0.0073989113
96	0x3d38021c	0.044923887
97	0x3c5a0b35	0.013308336
98	0x3d26b9bc	0.040704474
99	0xbb11d51b	-0.0022252265
100	0x3cc06897	0.023487372
101	0x3dc0101f	0.09378075
102	0xbd05e4e1	-0.03268898
103	0xbe6b96ea	-0.23006788
104	0x3bb5922b	0.005541106
105	0xbdc14ade	-0.09438108
106	0x3d6d4543	0.05792738
107	0x3c4bb568	0.012433387
108	0x3d235e15	0.039884645
109	0xbddd2a00	-0.107990265
110	0xbdc81045	-0.09768728
111	0x3c441565	0.0119679915
112	0x3e1abffc	0.15112299
113	0x3e476388	0.19471562
114	0x3d9b516b	0.075838886
115	0xbc7c0b88	-0.015383609
116	0xbd17de36	-0.03707715
117	0xbdfb5b5e	-0.12273286
118	0x3cb9364a	0.022608895
119	0xbd17f62f	-0.037100013
120	0x3cdfbe32	0.027312372
121	0x3c1660ec	0.009178381
122	0x3da8d5fd	0.0824394
123	0xbcb7efa3	-0.022453135
124	0x3dfeb1ff	0.12436294
125	0x3cda9760	0.02668351
126	0x3cde7018	0.02715306
127	0xbd98ffce	-0.07470666
128	0xbd22f3eb	-0.0397834
129	0xbdb3ef34	-0.08785859
130	0x3d69f93f	0.057122465
131	0xbe12868e	-0.14309141
132	0x3db869cc	0.09004554
133	0xbc1dafae	-0.009624405
134	0xbd00469d	-0.031317342
135	0x3d3d04bf	0.046147104
136	0xbb09249d	-0.0020926364
137	0x3e22a7ca	0.15884319
138	0xbdc98dea	-0.09841521
139	0xbdc4458c	-0.095835775
140	0x3d5c277e	0.0537486
141	0xbba96366	-0.00516932
142	0x3e37eca0	0.17961359
143	0x3d836f3b	0.064177
144	0xbd8de228	-0.069279015
145	0xbd330a6a	-0.043711103
146	0xbe0c75d7	-0.13716827
147	0x3d925750	0.0714556
148	0xbc07bf69	-0.008285382
149	0xbd84ffdf	-0.06494116
150	0xbddde7d0	-0.1083523
151	0xbc396726	-0.011316096
152	0x3dc7b6ee	0.09751688
153	0x3e0843eb	0.13307159
154	0xbbdd3ef0	-0.0067518875
155	0xbd0ac34f	-0.033877667
156	0xbc0b4c0a	-0.008502016
157	0xbe3443d1	-0.17603995
158	0x3d83caa0	0.06435132
159	0xbd111e46	-0.03542926
160	0x3c5005a8	0.012696661
161	0xbdc0db84	-0.09416869
162	0xbbdef227	-0.006803769
163	0xbd236f59	-0.03990111
164	0x3e1e6fef	0.15472387
165	0xbd23f802	-0.04003144
166	0x3cb8bb5b	0.022550276
167	0x3da888e4	0.08229235
168	0xbe06ac00	-0.1315155
169	0xbb1be507	-0.0023787634
170	0x3d8e689e	0.06953548
171	0xbd193507	-0.037404086
172	0xbd9ddc93	-0.07708087
173	0xbdb14ce0	-0.08657241
174	0x3dec0f16	0.11526315
175	0xbdd81463	-0.105507635
176	0x3de4af23	0.11166217
177	0x3bf5e3be	0.0075039556
178	0x3d9025a0	0.070384264
179	0xbd627cd7	-0.055294838
180	0xbe08b68e	-0.13350889
181	0x3d09a0b7	0.033600535
182	0x3dcecf7d	0.10098169
183	0xb9da6e16	-0.0004166222
184	0xbe0aa588	-0.13539708
185	0x3e322ed3	0.17400675
186	0xbcea73ae	-0.028619613
187	0xbc2ef490	-0.010678425
188	0xbe19d423	-0.1502233
189	0xbb8333b5	-0.0040039667
190	0xbc29f4e5	-0.010373329
191	0x3df6fe80	0.12060261
192	0x3dc2fdc1	0.09521056
193	0x3db59a59	0.0886733
194	0x3d8988cd	0.06715546
195	0x3e0c3a01	0.13694002
196	0x3d89f9ce	0.067370996
197	0xbcc244a4	-0.023714371
198	0xbd4372eb	-0.047717016
199	0xbdc1f9d9	-0.09471483
200	0x3b6be351	0.0035993645
201	0xbe00e883	-0.12588696
202	0xbdaefb50	-0.08544028
203	0xbdad198b	-0.084521376
204	0xbd40050f	-0.046879824
205	0x3c033a9b	0.008009578
206	0xbc0e8b16	-0.008700153
207	0x3de2a5ef	0.110668056
208	0xbcf398ec	-0.029736005
209	0x3e824bef	0.25448558
210	0x3c83ebcc	0.016103648
211	0x3b29af3b	0.00258918
212	0x3d969d03	0.07354166
213	0xbc87ea9f	-0.016591368
214	0xbd8683e1	-0.06568123
215	0x3d993d3d	0.074823834
216	0xbe503fe8	-0.20336878
217	0xbd61b123	-0.05510057
218	0xbd161f03	-0.03665067
219	0x3d4eb0b0	0.05046147
220	0xbd8f9667	-0.07011109
221	0x3dfd5a49	0.12370736
222	0x3d9ed27d	0.07754991
223	0xbbd2e82c	-0.0064363685
224	0x3de4b494	0.11167255
225	0x3c49d845	0.012319629
226	0x3ca4c3d0	0.020112902
227	0x3c125bae	0.008932991
228	0xbd94aa55	-0.07259051
229	0xbd2a9120	-0.04164231
230	0x3dbbef2a	0.09176476
231	0x3ca5982e	0.020214166
232	0x3e05095e	0.12991855
233	0x3c0aa9a8	0.008463301
234	0xbdf40cb3	-0.11916485
235	0x3d91e93a	0.071245626
236	0x3db3b9e5	0.08775691
237	0x3c9c94ce	0.019113924
238	0xbd12951e	-0.03578674
239	0xbc5386a9	-0.012910523
240	0xbe072502	-0.13197711
241	0xbdf9dfed	-0.122009136
242	0x3da2dfc6	0.07952838
243	0xbdda0b57	-0.10646694
244	0xbd4ba29e	-0.04971563
245	0xbd297ad1	-0.041376892
246	0xbc68f1ed	-0.014217836
247	0x3e25ca9f	0.16190575
248	0x3cbcae6e	0.023032393
249	0x3d1fe486	0.039036296
250	0x3d53cdac	0.051709816
251	0x3caa91af	0.02082142
252	0xbde2b428	-0.11069518
253	0x3c55b959	0.013044679
254	0x3bf6ad3e	0.0075279763
255	0xbd6d8373	-0.057986688

network_body._body_endoder.seq_layers.2.bias f4 [128]
0	0x00000000	0.0
1	0x00000000	0.0
2	0x00000000	0.0
3	0x00000000	0.0
4	0x00000000	0.0
5	0x00000000	0.0
6	0x00000000	0.0
7	0x00000000	0.0
8	0x00000000	0.0
9	0x00000000	0.0
10	0x00000000	0.0
11	0x00000000	0.0
12	0x00000000	0.0
13	0x00000000	0.0
14	0x00000000	0.0
15	0x00000000	0.0
16	0x00000000	0.0
17	0x00000000	0.0
18	0x00000000	0.0
19	0x00000000	0.0
20	0x00000000	0.0
21	0x00000000	0.0
22	0x00000000	0.0
23	0x00000000	0.0
24	0x00000000	0.0
25	0x00000000	0.0
26	0x00000000	0.0
27	0x00000000	0.0
28	0x00000000	0.0
29	0x00000000	0.0
30	0x00000000	0.0
31	0x00000000	0.0
32	0x00000000	0.0
33	0x00000000	0.0
34	0x00000000	0.0
35	0x00000000	0.0
36	0x00000000	0.0
37	0x00000000	0.0
38	0x00000000	0.0
39	0x00000000	0.0
40	0x00000000	0.0
41	0x00000000	0.0
42	0x00000000	0.0
43	0x00000000	0.0
44	0x00000000	0.0
45	0x00000000	0.0
46	0x00000000	0.0
47	0x00000000	0.0
48	0x00000000	0.0
49	0x00000000	0.0
50	0x00000000	0.0
51	0x00000000	0.0
52	0x00000000	0.0
53	0x00000000	0.0
54	0x00000000	0.0
55	0x00000000	0.0
56	0x00000000	0.0
57	0x00000000	0.0
58	0x00000000	0.0
59	0x00000000	0.0
60	0x00000000	0.0
61	0x00000000	0.0
62	0x00000000	0.0
63	0x00000000	0.0
64	0x00000000	0.0
65	0x00000000	0.0
66	0x00000000	0.0
67	0x00000000	0.0
68	0x00000000	0.0
69	0x00000000	0.0
70	0x00000000	0.0
71	0x00000000	0.0
72	0x00000000	0.0
73	0x00000000	0.0
74	0x00000000	0.0
75	0x00000000	0.0
76	0x00000000	0.0
77	0x00000000	0.0
78	0x00000000	0.0
79	0x00000000	0.0
80	0x00000000	0.0
81	0x00000000	0.0
82	0x00000000	0.0
83	0x00000000	0.0
84	0x00000000	0.0
85	0x00000000	0.0
86	0x00000000	0.0
87	0x00000000	0.0
88	0x00000000	0.0
89	0x00000000	0.0
90	0x00000000	0.0
91	0x00000000	0.0
92	0x00000000	0.0
93	0x00000000	0.0
94	0x00000000	0.0
95	0x00000000	0.0
96	0x00000000	0.0
97	0x00000000	0.0
98	0x00000000	0.0
99	0x00000000	0.0
100	0x00000000	0.0
101	0x00000000	0.0
102	0x00000000	0.0
103	0x00000000	0.0
104	0x00000000	0.0
105	0x00000000	0.0
106	0x00000000	0.0
107	0x00000000	0.0
108	0x00000000	0.0
109	0x00000000	0.0
110	0x00000000	0.0
111	0x00000000	0.0
112	0x00000000	0.0
113	0x00000000	0.0
114	0x00000000	0.0
115	0x00000000	0.0
116	0x00000000	0.0
117	0x00000000	0.0
118	0x00000000	0.0
119	0x00000000	0.0
120	0x00000000	0.0
121	0x00000000	0.0
122	0x00000000	0.0
123	0x00000000	0.0
124	0x00000000	0.0
125	0x00000000	0.0
126	0x00000000	0.0
127	0x00000000	0.0

action_model._discrete_distribution.branches.0.weight f4 [3, 128]
0	0xbc9eec56	-0.019399803
1	0x3c8da734	0.017291643
2	0xbb166738	-0.0022949707
3	0xbcb8043f	-0.022462962
4	0x3b78da78	0.0037972014
5	0xbc1ac956	-0.009447416
6	0xbccf883b	-0.025333514
7	0x3c212762	0.00983605
8	0x3c16dba0	0.009207636
9	0x3ba18fc1	0.004930467
10	0xbca2f2eb	-0.019891223
11	0xbc1e8e13	-0.009677428
12	0x3b8801a7	0.0041505876
13	0x3c32d103	0.01091409
14	0xbc41076e	-0.0117815565
15	0x3c02bcdc	0.007979598
16	0xbbd97e8f	-0.0066374014
17	0xbb877953	-0.004134336
18	0xbc13fbd3	-0.009032208
19	0x3c3ea377	0.011635653
20	0x3bc897bd	0.0061216042
21	0x3c253833	0.0100842
22	0xbb828c4c	-0.00398401
23	0xbc834524	-0.01602418
24	0xbc234202	-0.009964468
25	0xbc075094	-0.008258957
26	0xba467770	-0.0007570898
27	0x3bb87c77	0.0056300717
28	0xbc4ba058	-0.012428366
29	0x3bb78fa4	0.00560184
30	0xbb209ccd	-0.0024507523
31	0x3b66aa28	0.0035196636
32	0x3c90453f	0.017611144
33	0x3c1fed2b	0.009761135
34	0x3bf63638	0.0075137876
35	0xbaa94d7b	-0.0012916768
36	0xbc93ac52	-0.018026505
37	0xbb958507	-0.0045629772
38	0x3aab9bb4	0.0013092668
39	0x3b06dffb	0.002058028
40	0xbba733b0	-0.005102597
41	0x3bf96d05	0.007611873
42	0xbb4222c3	-0.002962277
43	0x3b8b118e	0.004244036
44	0xbb8bec5c	-0.0042701196
45	0x3b296f6f	0.0025853773
46	0x3abca50f	0.0014392453
47	0x3aebe185	0.0017996287
48	0xbc294e59	-0.010333621
49	0xbc1a22a5	-0.009407674
50	0xbba3a85f	-0.0049944366
51	0x3b7d543d	0.0038654946
52	0xbbd14588	-0.0063864626
53	0xbb33912e	-0.0027399766
54	0x3c0b0657	0.008485398
55	0xbc418987	-0.011812574
56	0x3c4ff8c5	0.012693589
57	0x3c19e1ea	0.009392241
58	0x3c03bcd5	0.0080406265
59	0x3c1c65ef	0.009545787
60	0xbbc18bf1	-0.005906575
61	0xba934f7b	-0.0011238897
62	0x3c324eeb	0.010883073
63	0xbc851a0a	-0.016247768
64	0x3c018e54	0.007907469
65	0x3c72ba4b	0.0148149235
66	0xbbaee226	-0.0053370176
67	0x3aa61dfa	0.0012673729
68	0xba4812c0	-0.00076321885
69	0xbc0c8b01	-0.008578063
70	0xba546583	-0.00081022846
71	0x3ca29b3a	0.019849408
72	0xbc024bff	-0.007952689
73	0x3c02b67b	0.007978077
74	0xbc7cd267	-0.015431023
75	0x3c191109	0.00934244
76	0xbae83a4a	-0.0017717567
77	0x3c7dd913	0.015493649
78	0x3b0f3264	0.0021850104
79	0x3c19adb6	0.009379795
80	0xbc0f2869	-0.008737662
81	0xba818791	-0.0009882321
82	0x3c545aa8	0.012961067
83	0x3bf92f20	0.0076044947
84	0xbc2355dd	-0.009969202
85	0xbc55d028	-0.013050117
86	0xbc019778	-0.007909648
87	0x3bf9fe5b	0.0076291985
88	0x3b96d888	0.0046034493
89	0x3c4e42cd	0.012589169
90	0xbc0057a9	-0.0078334
91	0x3b8948ba	0.004189578
92	0xbbaedcdb	-0.0053363866
93	0xbc398d5a	-0.011325205
94	0x3bdfb0bf	0.0068264897
95	0xbc16245e	-0.009163944
96	0xbbcbc55d	-0.006218596
97	0x3ad086d5	0.0015909324
98	0x3b117ae4	0.0022198493
99	0x3c49669f	0.012292533
100	0x3c11f532	0.008908557
101	0x3c5158db	0.012777532
102	0xbbafd4e8	-0.0053659566
103	0xbc14855b	-0.009064998
104	0x3b87aa87	0.0041402015
105	0xbb374845	-0.002796666
106	0xba2bcf2f	-0.0006554005
107	0xbb2cb5f7	-0.0026353577
108	0x399f921e	0.0003043571
109	0xbc2ddf0b	-0.01061226
110	0x3c69b3cd	0.014264059
111	0x3c0cb4a8	0.008587994
112	0xbbdc63d7	-0.006725769
113	0x3c78aa33	0.015177297
114	0x3c6ffc82	0.014647605
115	0x3a0b0bbf	0.00053041795
116	0x3c2edc31	0.010672615
117	0x3ca4322b	0.020043453
118	0xbbf18e5a	-0.007371706
119	0x3ba63edc	0.0050734114
120	0xbc6e7c10	-0.014555946
121	0x3c6934fb	0.014233823
122	0x3c1fbfc9	0.009750315
123	0xbc5f8128	-0.013641633
124	0xbc182ed0	-0.009288505
125	0x3ba5b195	0.00505657
126	0x3a13111a	0.00056101533
127	0xbcadf0ed	-0.021233046
128	0x3a1e6917	0.0006042881
129	0xbbc6ddba	-0.0060689123
130	0x3b14c8ca	0.0022702687
131	0xbb8532d7	-0.0040648985
132	0x3b8db91b	0.004325045
133	0xbc529537	-0.012852958
134	0xbb94e8b7	-0.0045443433
135	0xbac05265	-0.0014672993
136	0xba656b50	-0.00087516475
137	0xbbd660ff	-0.0065423246
138	0x3abd5fff	0.0014448165
139	0xbb964c37	-0.0045867222
140	0x3c044bce	0.008074714
141	0x3aae34f7	0.0013290931
142	0x3b58d5ed	0.0033086494
143	0x38e481a3	0.00010896034
144	0x3c2d5dfb	0.010581489
145	0x3bdfb795	0.0068273046
146	0x3bd2f8ba	0.006438342
147	0xbbe36bbf	-0.0069403346
148	0x3be63a52	0.0070259953
149	0x3c27ffaf	0.010253831
150	0x3c8a9c97	0.016920371
151	0x3b3c952c	0.0028775437
152	0x3b2cba87	0.0026356296
153	0xbacb8d72	-0.0015529825
154	0xba2b58b3	-0.00065363495
155	0xbcb871f3	-0.022515273
156	0x3b817077	0.0039501744
157	0x3b0cbfb3	0.0021476566
158	0x3bc9a17b	0.006153283
159	0x3b84553e	0.004038482
160	0x3c0c8c8f	0.008578434
161	0xbb1b4444	-0.0023691813
162	0xba72f312	-0.00092677877
163	0x3c172721	0.009225638
164	0xbc406bc6	-0.011744445
165	0x3aea0322	0.0017853717
166	0xbbf8eabb	-0.0075963414
167	0x3a833bd7	0.001001234
168	0xbc51f1f0	-0.01281403
169	0xbbbfaee5	-0.0058497065
170	0x3c8a712e	0.016899671
171	0x3b229cf1	0.0024812783
172	0x3caf947f	0.021433113
173	0x3bc80b20	0.006104842
174	0x3b95f5e4	0.0045764316
175	0x3bb83640	0.0056217015
176	0xba5dc0e2	-0.0008459223
177	0x3bdfb4cd	0.006826973
178	0x3c6343c7	0.01387114
179	0xb8b1571c	-8.456243e-05
180	0xbc2d1ddf	-0.010566204
181	0x3ba22c7b	0.00494915
182	0x3c54bcaa	0.012984434
183	0xbbf056e7	-0.0073345783
184	0xbc40710c	-0.0117457025
185	0x3c259c89	0.010108122
186	0x3ae35e8b	0.0017346902
187	0xbc13ef9a	-0.009029293
188	0xbbc30a51	-0.0059521575
189	0x3bee3f2a	0.0072707133
190	0xbc0fb7c6	-0.008771842
191	0xbac7197b	-0.0015190089
192	0x3ba12efc	0.004918931
193	0x3bc04cd0	0.0058685318
194	0x3b9f6fa0	0.0048656017
195	0xbba21506	-0.004946354
196	0x3c306f3e	0.01076871
197	0x3a8fbb6b	0.0010965889
198	0xbaab9d67	-0.0013093174
199	0xbb50be2d	-0.0031851635
200	0x3ba6c785	0.0050897026
201	0x3c15b907	0.009138352
202	0x3ca21ad5	0.019788185
203	0xba50630d	-0.000794933
204	0x3c144923	0.00905064
205	0x3b0ecf03	0.002179087
206	0x3bc88e1b	0.006120456
207	0xbc5a0d4a	-0.013308832
208	0x3c4b012e	0.012390418
209	0xbc1706b5	-0.009217908
210	0x3c181728	0.009282865
211	0xb9bbb002	-0.00035798555
212	0xbb90c4f9	-0.004418012
213	0xbbbf555f	-0.0058390344
214	0x3b651a1b	0.0034958187
215	0xbbed9ba0	-0.007251218
216	0x3c088f62	0.008334966
217	0x3c43bbce	0.011946632
218	0x3c8a4ba7	0.016881777
219	0x3b5a91f5	0.0033351157
220	0xbade0642	-0.0016939121
221	0xbac90122	-0.0015335421
222	0xba5d694a	-0.000844617
223	0x3c2678a4	0.010160599
224	0xbc33264f	-0.010934426
225	0xbb9d4e1f	-0.0048005725
226	0x3bb16e1a	0.0054147365
227	0x3aabaa63	0.0013097044
228	0x3c125fef	0.008934005
229	0x3c084702	0.008317711
230	0x3ba3de3d	0.005000858
231	0x3a6b4abd	0.00089756754
232	0x3c4165a5	0.011804019
233	0xbba374bb	-0.0049882806
234	0x3c0008d7	0.007814608
235	0xbb83e8de	-0.0040255627
236	0xbc1be73d	-0.009515581
237	0x3c4b4d9b	0.012408639
238	0xbbd5169d	-0.00650294
239	0xbbce00c3	-0.006286712
240	0x3c24385d	0.010023204
241	0xba3bfe6c	-0.00071713957
242	0xba55a965	-0.0008150547
243	0x3c2c91ee	0.010532839
244	0xbc727698	-0.014798783
245	0x3a2f12dd	0.0006678531
246	0xbbc3344d	-0.0059571625
247	0xbcb856cf	-0.022502331
248	0x3b01dbbd	0.0019814812
249	0x3c4d98fb	0.01254868
250	0xbb8f76f7	-0.0043781954
251	0xba8ec496	-0.0010892327
252	0xbb20e877	-0.0024552622
253	0x3b813ddb	0.0039441413
254	0xbb9bc871	-0.004754119
255	0x3aea7a95	0.0017889315

action_model._discrete_distribution.branches.0.bias f4 [3]
0	0x00000000	0.0
1	0x00000000	0.0
2	0x00000000	0.0

action_model._discrete_distribution.branches.1.weight f4 [3, 128]
0	0x3b92b59d	0.0044772164
1	0xbc7c7483	-0.015408638
2	0x3bb70218	0.0055849664
3	0xbc3dcf9f	-0.011585145
4	0xbbc361c7	-0.0059625837
5	0x3bce33b8	0.0062927864
6	0x3b234603	0.0024913556
7	0xbc48604c	-0.01222999
8	0x3beabb65	0.0071634525
9	0xbaa58d6f	-0.0012630651
10	0xbc3b3092	-0.011425154
11	0xbbcbfb6b	-0.0062250397
12	0xbc6e7948	-0.014555283
13	0x3c2f7041	0.010707916
14	0x3bb40db3	0.005494797
15	0x3ade0162	0.0016937668
16	0x3bb62044	0.0055580456
17	0x3bca0714	0.0061653946
18	0x3c0d2b66	0.008616304
19	0xbc3fb042	-0.011699738
20	0xbacf4a5d	-0.0015815009
21	0x3b70ee40	0.0036763102
22	0x3ad6abc2	0.0016378092
23	0xbc61110d	-0.013736975
24	0x3c800aa3	0.015630072
25	0x3c771453	0.015080529
26	0xbb91b739	-0.0044468907
27	0xbb1fbcb3	-0.0024373948
28	0xbbae2b5a	-0.0053152265
29	0xbc1b55c0	-0.009480894
30	0xbb09a97b	-0.002100556
31	0x3a4868e4	0.00076450245
32	0x3c0218ba	0.007940466
33	0xbb048b5d	-0.0020224669
34	0xbc1d1f97	-0.009590051
35	0xbc1d24bb	-0.009591277
36	0x3be6776d	0.0070332796
37	0xbb677f1d	-0.0035323568
38	0x3a5f6357	0.00085215777
39	0x3bb5649b	0.0055356747
40	0x39efaeab	0.0004571577
41	0xbbe1a9f2	-0.006886714
42	0xbc3c36be	-0.011487661
43	0xbbc16e96	-0.0059030754
44	0x3c185d23	0.009299549
45	0x3b26d0e7	0.0025454105
46	0xb9d205f5	-0.0004005876
47	0x3c3374ef	0.010953172
48	0x3c4ce335	0.012505342
49	0xbb56e0ef	-0.003278788
50	0xbbb991c4	-0.0056631286
51	0xbb0db4ed	-0.0021622733
52	0xbb90aff7	-0.004415508
53	0x3ca50a0b	0.02014639
54	0x3c342dc8	0.010997243
55	0x3bbe81d3	0.005813816
56	0xbc81ad5e	-0.015829738
57	0x3c58d0bd	0.013233361
58	0x39b4aea0	0.0003446238
59	0x3c9d1abc	0.019177787
60	0x3b77f372	0.0037834314
61	0xb8f764a3	-0.00011796623
62	0xbbba18ca	-0.0056792246
63	0x3c20f3e8	0.009823777
64	0x3a3f6590	0.0007301206
65	0x3a87706b	0.0010333186
66	0xbb62de70	-0.0034617446
67	0x39ba93d8	0.00035586837
68	0xba641b15	-0.00087015453
69	0x38390875	4.4115313e-05
70	0x3beea3b7	0.0072827
71	0x3c2d6e82	0.010585429
72	0xbc724aef	-0.014788373
73	0x3c6dd1ab	0.014515321
74	0xbad7fa6a	-0.0016477827
75	0xbbda8b47	-0.006669435
76	0x3c372603	0.011178496
77	0x3b2c2b1b	0.002627081
78	0x3aac227b	0.0013132835
79	0x3bec8448	0.0072179176
80	0xbc3d1bde	-0.011542289
81	0xbc9833b3	-0.01857934
82	0xbb0a5b01	-0.0021111371
83	0x3c7f0203	0.0155644445
84	0xbc357aef	-0.011076673
85	0xbc05a103	-0.008156064
86	0x3c422932	0.011850642
87	0xbc88f8b4	-0.016720153
88	0x3c8aee2f	0.016959278
89	0x3c23d777	0.010000101
90	0x3aaadcf2	0.0013035818
91	0x3c2dc04f	0.010604932
92	0xbb5ad6ba	-0.0033392147
93	0x3ab95cfb	0.001414209
94	0x3c8159d9	0.015789913
95	0xbbbe96e6	-0.0058163283
96	0x3acc6179	0.0015593014
97	0xbbb01882	-0.0053740153
98	0xbc281757	-0.010259471
99	0x39d6b2f8	0.00040950603
100	0xbc30936d	-0.010777337
101	0x3c05858b	0.008149515
102	0x3b950e8f	0.0045488547
103	0x3b48562a	0.0030568936
104	0xbb27aa7f	-0.0025583801
105	0x3c75d8da	0.015005315
106	0x3b3f2405	0.0029165756
107	0xbae31db8	-0.0017327582
108	0xbc84767c	-0.016169779
109	0xbc4a4213	-0.012344855
110	0xbc0bc308	-0.008530386
111	0x3c659852	0.014013367
112	0x3c072fd9	0.008251154
113	0x3c0f2656	0.008737167
114	0x3acd447d	0.001566067
115	0xbbbbb8e5	-0.0057288283
116	0xbbf9c26a	-0.007622053
117	0x3c91f9ad	0.01781925
118	0xba99b947	-0.0011728191
119	0xbc5c3550	-0.013440445
120	0xbbf0cde2	-0.007348762
121	0x3bb6b906	0.0055762557
122	0xbc80325b	-0.015649011
123	0xbb1d4ad7	-0.0024000907
124	0x3bd2b8d5	0.006430725
125	0xbadbd0b5	-0.0016770574
126	0x3c8bbe8c	0.017058633
127	0x3c66ac63	0.014079186
128	0xba8e5e75	-0.0010861891
129	0x3a9f2259	0.0012140974
130	0xb9ba85c9	-0.00035576362
131	0xbb8c9397	-0.004290055
132	0x3cb19900	0.021679401
133	0xbc4def25	-0.0125692235
134	0x39550b6d	0.0002031752
135	0x3c16be87	0.009200699
136	0xbb4dfc10	-0.0031430759
137	0x3b0f98a2	0.0021911045
138	0xbbc95741	-0.0061444347
139	0x3c3a262b	0.011361639
140	0xbb274f2c	-0.0025529368
141	0x3aa892e2	0.0012861157
142	0xbb7f1940	-0.0038924962
143	0x3a768fdb	0.00094055914
144	0x3b435234	0.0029803636
145	0xb9d5832a	-0.0004072425
146	0x3b6bc603	0.0035976178
147	0x3b81c612	0.0039603794
148	0x3c790f7a	0.015201444
149	0x3b6af0c5	0.0035849076
150	0x3bda44d8	0.006661039
151	0xbb3641aa	-0.0027810135
152	0x3c8b31c7	0.01699151
153	0xbc0e0887	-0.008669025
154	0xb9ee7668	-0.00045483117
155	0xba3d9f2f	-0.0007233498
156	0xbc6201fa	-0.013794417
157	0x3c5ac815	0.013353367
158	0x3bc5869e	0.0060280105
159	0x3c004b20	0.007830411
160	0x3ad6e6d5	0.0016395698
161	0xbb206e4e	-0.002447981
162	0xbc26d685	-0.010182981
163	0x3b8b1fbc	0.0042457264
164	0x3c5dfa6b	0.013548474
165	0xba793aa8	-0.00095073367
166	0x3c25856f	0.010102614
167	0xbbc3a9a4	-0.0059711505
168	0x3c0f711c	0.008754995
169	0x3a8061ec	0.0009794808
170	0xbc9b6463	-0.018968767
171	0xbc118019	-0.0088806385
172	0xbc29f043	-0.010372224
173	0xbc46c80b	-0.012132655
174	0xbac16b61	-0.0014756733
175	0xbbde8678	-0.0067909323
176	0xbc0361c4	-0.008018915
177	0x3c70570d	0.014669192
178	0xbc9bab6e	-0.019002642
179	0x3c06460c	0.008195411
180	0x3b84ffd6	0.0040588183
181	0xbb96dadf	-0.004603728
182	0xbb8a09cc	-0.0042125937
183	0x3a9c88c4	0.0011942615
184	0xbb88b705	-0.0041722083
185	0xbc18fa6b	-0.009337048
186	0xb928e0a5	-0.00016105415
187	0xbba05748	-0.0048932172
188	0xbc11a4ef	-0.008889421
189	0x3a87cdc0	0.0010361001
190	0xbbcdcfef	-0.006280891
191	0x3c036d67	0.008021689
192	0x3bf36505	0.007427814
193	0x3b8da051	0.0043220897
194	0x3c489ffd	0.012245175
195	0xb9aad669	-0.00032584675
196	0xbb4771a7	-0.0030432732
197	0xbab40772	-0.0013735129
198	0x3ba82987	0.0051319036
199	0x3a9c527b	0.0011926437
200	0xbac79730	-0.0015227553
201	0xbbd73d28	-0.0065685697
202	0xbbab49c7	-0.005227301
203	0x3b80052f	0.003906868
204	0x3b9f278d	0.0048570097
205	0x3b1d9b19	0.0024048744
206	0x38190933	3.648661e-05
207	0xbc490b5d	-0.012270776
208	0xbbadeb03	-0.0053075566
209	0xbc155c04	-0.0091161765
210	0xbc67cf1b	-0.014148499
211	0x3c8c5d53	0.017134344
212	0xbc4a20d4	-0.012336928
213	0xba387af9	-0.00070373673
214	0xbc95e8c2	-0.018299464
215	0xbaaaa9e2	-0.00130206
216	0x3a9fcca4	0.0012191725
217	0x3c2c7a9b	0.010527278
218	0xbc8c871e	-0.017154273
219	0x3bfed87a	0.007777271
220	0x3baa447d	0.0051961527
221	0x3b80a918	0.0039264075
222	0xbac7b21a	-0.0015235574
223	0xbc943fff	-0.018096922
224	0x3c528365	0.01284871
225	0x39ec9ce5	0.00045130323
226	0xbbfeb945	-0.0077735507
227	0x3a6527ba	0.00087415765
228	0xbb8516c5	-0.004061552
229	0x3be6bd0a	0.007041578
230	0xbc60fea5	-0.013732587
231	0x3b4575be	0.0030129994
232	0x3c3fe5f3	0.011712539
233	0x3b2953fb	0.002583741
234	0xbb8bc250	-0.004265107
235	0xbb6b10cf	-0.0035868173
236	0x3baa9ce7	0.0052066925
237	0x3a0417e7	0.0005038962
238	0xba4343f3	-0.0007448785
239	0xbc6ce84b	-0.01445968
240	0xbc9ffe7f	-0.019530533
241	0xbb2a3010	-0.002596859
242	0x3b62f9bb	0.0034633714
243	0x3bf090cb	0.0073414794
244	0xbc78a362	-0.015175672
245	0xbc23f8bf	-0.010008036
246	0xbc59063a	-0.013246113
247	0xbbbacb43	-0.0057005
248	0xbb6ff6b2	-0.0036615548
249	0xbbc2fa07	-0.0059502157
250	0xba9678a8	-0.001148005
251	0xbbadc5f8	-0.0053031407
252	0x3ca6faf7	0.020383341
253	0xbb91ba0f	-0.0044472287
254	0xbba5a856	-0.0050554676
255	0x3b2401ff	0.0025025604

action_model._discrete_distribution.branches.1.bias f4 [3]
0	0x00000000	0.0
1	0x00000000	0.0
2	0x00000000	0.0

action_model._discrete_distribution.branches.2.weight f4 [3, 128]
0	0xbbfb793d	-0.007674365
1	0x3b3cea61	0.0028826224
2	0xbc1ede8b	-0.009696613
3	0x3bd2fd1b	0.006438864
4	0xbc83e4a3	-0.016100233
5	0xbc0b9d36	-0.008521369
6	0x3ae3a2fd	0.00173673
7	0x3c9827a8	0.018573597
8	0xbc6d8847	-0.014497823
9	0x3b1cd4a5	0.0023930457
10	0xbbd9ce6a	-0.006646921
11	0xbb8f3609	-0.004370455
12	0x3b94ce72	0.0045412118
13	0x3b18501e	0.0023241113
14	0x396e0897	0.00022700649
15	0x3b802c91	0.0039115627
16	0x3bfe1580	0.007754028
17	0x3bab7c7b	0.005233345
18	0xbc1ec35f	-0.009690135
19	0x399d1b6b	0.00029965802
20	0x3b8a670b	0.0042237095
21	0xbbbdb93f	-0.0057899053
22	0x3bd2fe53	0.006439009
23	0x3c32e6d7	0.010919294
24	0xbb41168b	-0.00294629
25	0xbbebc1a0	-0.0071947128
26	0x3c431ca0	0.01190868
27	0xbc26b04b	-0.010173867
28	0x3bfd4470	0.0077291057
29	0x3ba66177	0.0050775367
30	0x3c15a0fb	0.009132619
31	0x3c85a28d	0.016312862
32	0x3c4f4fd7	0.012653313
33	0xbb4644eb	-0.003025348
34	0x3c77dc02	0.015128138
35	0x3c130f42	0.008975806
36	0xbae3dde0	-0.001738485
37	0xbbf8b9f7	-0.007590528
38	0xbc198225	-0.009369408
39	0x3bc36341	0.0059627597
40	0xbc83027f	-0.015992401
41	0xbba1293e	-0.0049182465
42	0x3c8c9e04	0.017165191
43	0xbc1baf06	-0.009502178
44	0xb999773d	-0.00029271274
45	0x3c3bc555	0.011460622
46	0x3bf1d6ed	0.0073803575
47	0xbb170990	-0.0023046471
48	0xbb994ddf	-0.0046784724
49	0xba1885d3	-0.0005818281
50	0x3bfd1edb	0.0077246255
51	0x3c9dbb0d	0.019254232
52	0xbb6daab0	-0.0036265068
53	0x3b17b2af	0.0023147275
54	0xbc49c0f5	-0.012314071
55	0x3c191988	0.009344466
56	0xbc065244	-0.008198325
57	0x3cc54ff3	0.024085974
58	0x3a87d6af	0.0010363663
59	0xbb8b52b7	-0.0042518037
60	0x3c586f0d	0.01321007
61	0x3a5fe912	0.0008541505
62	0x3c785b9b	0.015158559
63	0xbbd3c8db	-0.006463153
64	0x3c86c315	0.016450444
65	0xbb9c6ea5	-0.004773932
66	0x3ab84f66	0.0014061749
67	0xbc179bfc	-0.009253498
68	0x3c5dc6a0	0.013536125
69	0x3c4e293f	0.012583076
70	0xbbe2a1af	-0.006916247
71	0xbb1436b6	-0.0022615618
72	0x3bfcce1d	0.0077150003
73	0x3c468a81	0.012117983
74	0x3bdaf1bb	0.0066816485
75	0xbb8f2c2e	-0.0043692803
76	0xbbec89bd	-0.007218568
77	0x3cd13680	0.025538683
78	0xba0045e6	-0.0004893228
79	0xbb182864	-0.0023217434
80	0xbbc626f8	-0.006047126
81	0xbb7a6b52	-0.003821094
82	0xbc202f47	-0.009776897
83	0x3c20fb5e	0.009825556
84	0xbbaa53ab	-0.0051979623
85	0x3c4209d5	0.011843164
86	0x3bc80e4b	0.0061052195
87	0xba357d4b	-0.0006923272
88	0xbad34467	-0.0016118408
89	0xba14b660	-0.0005672928
90	0x3accfc42	0.0015639144
91	0xbbf15e0a	-0.0073659467
92	0xbc81472c	-0.015781008
93	0x3c325827	0.010885275
94	0x3a4b8391	0.00077634404
95	0x3c0a5bfb	0.008444781
96	0x3c3e9ee0	0.011634558
97	0x3763f3c2	1.3587009e-05
98	0xbc34bb74	-0.01103102
99	0x3b51e267	0.0032025815
100	0x3bf59f4d	0.007495797
101	0xbb08b618	-0.002086049
102	0x3c9b5bc6	0.01896466
103	0x3bc0298f	0.005864329
104	0x3c5e59f5	0.013571252
105	0xbc4c6569	-0.01247535
106	0x3be608c5	0.0070200884
107	0xbc33054c	-0.010926556
108	0x3c730632	0.01483302
109	0x3bed7fa7	0.0072478834
110	0xbb2a2a8f	-0.0025965308
111	0xbc012f32	-0.007884787
112	0x3a848ebf	0.0010113342
113	0x3bd197ba	0.006396261
114	0xbc683737	-0.0141733205
115	0xbc2e01b1	-0.01062052
116	0x3af8f3a7	0.0018993512
117	0x3c2687f7	0.0101642525
118	0x3c367a2e	0.011137528
119	0x3c19ce56	0.009387573
120	0x3c59fb03	0.013304475
121	0x3b5c25ff	0.0033591983
122	0xbbffecc8	-0.007810209
123	0xbbc8db00	-0.0061296225
124	0xbc1053e3	-0.008809063
125	0x3bdcd0f5	0.006738777
126	0x3b1250a5	0.00223259
127	0xba7465cd	-0.0009323031
128	0xbba33439	-0.0049805907
129	0x3bdd7505	0.0067583346
130	0xbbfa974a	-0.0076474296
131	0x3c1d85c5	0.009614413
132	0xbc940d28	-0.01807268
133	0x3ba5682d	0.005047819
134	0xbc1e0b7b	-0.009646292
135	0x3bf1a5df	0.0073745097
136	0x3c0625d8	0.008187734
137	0x3c4666e8	0.012109496
138	0x3b6dd708	0.0036291499
139	0xba5416a5	-0.00080905325
140	0xbc49dd14	-0.012320776
141	0xbb4c0692	-0.0031131846
142	0x3b938a9b	0.004502607
143	0xbb5feb87	-0.0034167485
144	0xbb37e0e7	-0.0028057636
145	0xbc3e3913	-0.011610287
146	0x3b9ae12b	0.004726549
147	0xbb7e7f48	-0.003883319
148	0xbbaaa20f	-0.005207307
149	0x3aa84a0e	0.0012839453
150	0xba7e2d57	-0.0009696087
151	0xbbcc303b	-0.0062313355
152	0xbc8967ac	-0.016773067
153	0xbac77da4	-0.0015219939
154	0x3a3934e9	0.0007065074
155	0x3b8ebedb	0.004356248
156	0x3ac129b7	0.0014737163
157	0x3a58adc3	0.00082656386
158	0x3ac7615e	0.0015211513
159	0xb8d12880	-9.97344e-05
160	0x3b0993cf	0.0020992642
161	0xbc87c767	-0.016574575
162	0xbb565117	-0.0032702142
163	0x3b2267b3	0.0024781048
164	0x3cb90b9f	0.02258855
165	0xb93c7cab	-0.0001797552
166	0x386b7ba5	5.614352e-05
167	0x3a8a521c	0.0010553035
168	0xbbeb9d5d	-0.00719039
169	0xbb6f3687	-0.0036501007
170	0x3bee1895	0.007266114
171	0xbb6d50b5	-0.0036211435
172	0xbbfcad4a	-0.0077110874
173	0x3becc292	0.007225343
174	0xbb4d0a67	-0.0031286718
175	0xbc1c50a5	-0.0095407115
176	0xbb994cb8	-0.004678335
177	0x3c1e8618	0.009675525
178	0x3c81e6e0	0.01585716
179	0x3a339883	0.0006851034
180	0xbc17299d	-0.00922623
181	0xbb56d4e5	-0.0032780704
182	0x3b91d469	0.00445037
183	0xbba42243	-0.005008967
184	0x3c4549e3	0.012041542
185	0x3c331590	0.010930434
186	0x3c07f46e	0.008298023
187	0x3c88fb77	0.01672147
188	0xbc25d723	-0.010122093
189	0xbbf93dbd	-0.0076062367
190	0x3b8e95b3	0.0043513416
191	0xb87bf475	-6.007073e-05
192	0xbc63e7a5	-0.013910209
193	0x3c85075b	0.016238859
194	0x3c254749	0.0100877965
195	0xbb592b38	-0.0033137333
196	0x3b6daa63	0.0036264888
197	0x3b50e3ed	0.0031874136
198	0xbc028f84	-0.007968787
199	0x3bc41e8e	0.0059850877
200	0x3b88a7e1	0.0041704034
201	0x3c5d63d2	0.013512569
202	0xb9e1ca40	-0.00043066032
203	0x3b24efa7	0.0025167258
204	0x3b204c54	0.0024459558
205	0xba9952e3	-0.0011697676
206	0x3c12890b	0.008943806
207	0x3b8209ea	0.003968467
208	0xbcdefdbf	-0.027220605
209	0xba612bfa	-0.0008589622
210	0xbbbd6431	-0.005779766
211	0xbbf936c5	-0.007605406
212	0x3ab2b89a	0.0013635338
213	0x3bbb994d	0.005725062
214	0xbc28b46e	-0.010296924
215	0xbbbc779d	-0.0057515637
216	0x3bd4ca52	0.006493845
217	0xbb1b6c59	-0.0023715703
218	0xbbff819b	-0.0077974326
219	0xba8c4a7a	-0.0010703348
220	0xbb6fd7ad	-0.0036597059
221	0xbb4df788	-0.0031428058
222	0x3b5bccd2	0.003353883
223	0xbbdd27af	-0.0067491154
224	0x3c3c02e9	0.011475303
225	0x3b980591	0.0046393354
226	0xbc4eb682	-0.012616755
227	0x3c9ff075	0.019523839
228	0x39e9f73b	0.00044625424
229	0x3b453076	0.00300887
230	0xbc241792	-0.010015385
231	0x3bf57923	0.0074912473
232	0x3bc7f1fa	0.006101844
233	0xbb3fd6bf	-0.0029272286
234	0xbbd94f42	-0.0066317627
235	0xbc0b892f	-0.008516594
236	0x3c18c877	0.009325138
237	0xbc03e7af	-0.008050843
238	0xbc0702ef	-0.0082404455
239	0xbbdbda6d	-0.006709388
240	0xbc38a343	-0.011269393
241	0x3c2e0ea9	0.010623612
242	0x3b151e0a	0.00227535
243	0x3c9b71cb	0.01897516
244	0xbb9a6ebd	-0.004712908
245	0xbbd247c7	-0.006417248
246	0x3a9119b3	0.0011070281
247	0x3c8fbea1	0.017546954
248	0xbb83bb04	-0.0040200967
249	0xb9b5e461	-0.00034693166
250	0xbc14be23	-0.009078535
251	0x3b67fa0b	0.003539684
252	0x3c482916	0.012216827
253	0xbb929b5a	-0.0044740858
254	0xbc4bf612	-0.012448804
255	0xbc1b32c7	-0.0094725555

action_model._discrete_distribution.branches.2.bias f4 [3]
0	0x00000000	0.0
1	0x00000000	0.0
2	0x00000000	0.0

action_model._discrete_distribution.branches.3.weight f4 [3, 128]
0	0xbcaccaea	-0.02109285
1	0xbb7a739f	-0.0038215888
2	0x3c574ad0	0.013140395
3	0xbc731c10	-0.014838234
4	0x3c1d00d3	0.009582716
5	0xbc09b100	-0.0084040165
6	0xbbe58ac7	-0.007005069
7	0x3c25f73b	0.010129745
8	0xbaca3274	-0.0015426413
9	0x3c27eff6	0.010250082
10	0xbbdcae50	-0.006734647
11	0xbbda994f	-0.006671108
12	0x3be5dc88	0.0070148148
13	0xbc4d0d57	-0.0125153875
14	0x3c48251b	0.012215878
15	0x3a8b4d3a	0.0010627874
16	0x3aa3c65d	0.001249503
17	0xbc647388	-0.01394356
18	0xbbc70126	-0.006073135
19	0xbbf1779b	-0.0073689944
20	0x3c05bbcf	0.008162453
21	0xbbdba2a2	-0.006702737
22	0x3c26b026	0.010173833
23	0xbb43c652	-0.0029872847
24	0x3ad1a7fa	0.0015995495
25	0xbc48bb70	-0.01225172
26	0xbc23dd7e	-0.010001538
27	0x3c8be17f	0.017075298
28	0x3af59d32	0.0018738864
29	0x3b5460ab	0.0032406251
30	0xbc35f0f1	-0.011104808
31	0xbb396a1b	-0.0028292004
32	0x3c63b88d	0.013898981
33	0xbba4229f	-0.00500901
34	0xbbe2c0c5	-0.0069199526
35	0x3c0bbcb4	0.008528877
36	0xbc3efd95	-0.011657138
37	0xbab4061d	-0.0013734732
38	0xbbad3b83	-0.0052866354
39	0xbc04dd97	-0.008109472
40	0xba2d3407	-0.0006607179
41	0x3c540278	0.012940042
42	0xbc8bb11f	-0.017052231
43	0xbbb55af6	-0.005534525
44	0xbbe5bb08	-0.0070108213
45	0xbbcf73f0	-0.0063309595
46	0xbb919c78	-0.0044437014
47	0x3b8fd7d7	0.004389744
48	0xbc70652d	-0.01467256
49	0xbae72f65	-0.0017638026
50	0x3c18be76	0.009322753
51	0x3b1094e4	0.0022061402
52	0xbc161cc4	-0.009162132
53	0x3bf023df	0.007328495
54	0xbc07b5c0	-0.008283079
55	0x3c7eb752	0.015546637
56	0xbc4ef7f0	-0.012632355
57	0xbc0cf28e	-0.008602751
58	0xbc006f90	-0.007839099
59	0xbadf75b3	-0.0017048627
60	0x3bf3595b	0.0074264235
61	0xbca240cf	-0.019806294
62	0x3ccfa143	0.02534545
63	0xbc2fd2ef	-0.010731443
64	0x3b940bc3	0.0045180037
65	0xbc85ba86	-0.016324293
66	0x3c581398	0.013188265
67	0x3bb8f5ca	0.0056445347
68	0xbc22cd6b	-0.009936671
69	0x3c6787fa	0.01413154
70	0xbc036c57	-0.008021436
71	0x3c6c119b	0.014408494
72	0x3c4a2127	0.012337006
73	0x3c2cf443	0.010556283
74	0x3c96967b	0.018382302
75	0x3c240934	0.01001196
76	0x3ba3b873	0.0049963533
77	0x3bce1810	0.0062894896
78	0xbb912587	-0.0044295224
79	0xbb117f1e	-0.0022201012
80	0xbc515cf8	-0.012778513
81	0x3c0c26d2	0.008554177
82	0x3c71cf7a	0.014758939
83	0xbb669e77	-0.0035189667
84	0xbc83e69c	-0.016101174
85	0xba04796f	-0.00050534954
86	0x3c54567d	0.012960074
87	0x3c463919	0.012098574
88	0x3b22c345	0.0024835628
89	0x3ba46fa2	0.0050181905
90	0xbba4c21a	-0.0050280215
91	0xbc1f6cdf	-0.009730547
92	0xbb819325	-0.0039543086
93	0xbbd7c90a	-0.006585245
94	0x3bdebeb8	0.006797638
95	0xbc50a2cb	-0.012734125
96	0x3ab4ec82	0.0013803395
97	0x3b95d264	0.0045721997
98	0xbbffea6a	-0.0078099268
99	0x3b2cf7ff	0.0026392934
100	0x3ba2bff3	0.00496673
101	0x3c2417d3	0.010015446
102	0x3c089595	0.008336444
103	0x3bb87482	0.005629123
104	0x3c9c7e32	0.019103143
105	0x3ba0020e	0.0048830574
106	0x3c8e1f69	0.017348962
107	0xbba7b4d7	-0.0051179933
108	0x3c32080d	0.010866177
109	0x3adbd90f	0.0016773063
110	0xbbed6b6a	-0.007245471
111	0x3b0d7ee3	0.0021590523
112	0xbb093757	-0.0020937526
113	0x3c15a096	0.009132525
114	0xbb5628f5	-0.003267822
115	0xbc1f78cf	-0.009733393
116	0x3c20d7d0	0.009817079
117	0xba6ff492	-0.000915357
118	0xbb01078b	-0.0019688334
119	0x3b0686c5	0.0020527106
120	0xbc631b8d	-0.013861549
121	0xbca77a39	-0.020444022
122	0xbc09cc1b	-0.008410479
123	0xbad945a2	-0.0016576538
124	0x3bbf6409	0.0058407825
125	0x3b90a644	0.0044143517
126	0xbc55916f	-0.013035162
127	0x3bc9e667	0.0061614993
128	0x3c03ff2f	0.008056446
129	0xbbbf9325	-0.0058463984
130	0x3adde6b0	0.0016929712
131	0x3c05b912	0.0081618
132	0x3c55bfe5	0.0130462395
133	0x3bd7b882	0.0065832743
134	0x3a971d64	0.0011529145
135	0x3b905907	0.004405144
136	0xbc2f32dc	-0.010693278
137	0xbbd582b0	-0.0065158233
138	0xbc68ddf3	-0.014213073
139	0x3c76a47b	0.015053864
140	0xbb8c9488	-0.0042901672
141	0xbc90a6c8	-0.017657652
142	0xbc040445	-0.008057659
143	0xbc22d976	-0.009939542
144	0x3b5cbd7d	0.003368228
145	0x3c73f762	0.014890524
146	0xbc056ed7	-0.008144102
147	0xbc2ad910	-0.010427728
148	0x3ba1b276	0.0049346043
149	0xba4f1ca7	-0.0007900693
150	0xbb7c77a3	-0.0038523457
151	0xba4ee79b	-0.0007892788
152	0x3c14a282	0.009071948
153	0xba3200be	-0.0006790272
154	0xbc83282e	-0.01601037
155	0x39d8ebe0	0.0004137447
156	0xbb333d9e	-0.002734996
157	0x37a99a4a	2.0218216e-05
158	0xbba4eedd	-0.0050333575
159	0x3cb67a68	0.022275165
160	0x3c8b233b	0.016984573
161	0xbc411626	-0.011785066
162	0xbc69bca0	-0.014266163
163	0x3a82589d	0.0009944622
164	0x3baa1113	0.0051900237
165	0x3b56c6db	0.0032772336
166	0x3c26437d	0.010147926
167	0xbbab12fe	-0.00522077
168	0x3bcab440	0.0061860383
169	0xbc2508be	-0.010072885
170	0xbbd33437	-0.0064454335
171	0x3c93a136	0.018021207
172	0xbc531198	-0.012882613
173	0xbc18fc54	-0.009337503
174	0xbbd2323b	-0.0064146793
175	0xbc146377	-0.009056917
176	0x3ae4466d	0.0017416008
177	0x3b799ee8	0.00380891
178	0xbb152aff	-0.0022761223
179	0xbb8382dc	-0.0040134024
180	0xbb238c92	-0.0024955613
181	0x3c58b54a	0.013226816
182	0xba61d263	-0.0008614419
183	0xbc002fed	-0.007823926
184	0x3abf4f6b	0.0014595812
185	0xbcbf55df	-0.023356376
186	0xba7e1c75	-0.00096935715
187	0xbc4e5982	-0.0125945825
188	0x3a25795d	0.0006312335
189	0x3bd0da92	0.006373712
190	0xbc364f92	-0.0111273695
191	0xbc17eb13	-0.009272355
192	0x3c9b0867	0.018924905
193	0xbaa56bb0	-0.0012620594
194	0xbbb7fb4b	-0.0056146733
195	0x3a81f630	0.0009915289
196	0xbb9152d7	-0.004434924
197	0xbb9a5597	-0.00470991
198	0xbb7448b5	-0.0037274782
199	0x3cc4df68	0.02403231
200	0x3be099a5	0.0068542534
201	0x3b49639e	0.0030729542
202	0x3aafee47	0.0013422453
203	0x3be45aaa	0.006968816
204	0x3b2d78d3	0.0026469722
205	0xbbbf866b	-0.0058448813
206	0x3c20727b	0.009792919
207	0x3ba53d3b	0.0050426996
208	0xbbc05a7b	-0.005870161
209	0x3c2de96f	0.010614737
210	0x3c73306f	0.01484309
211	0x3b9200c0	0.004455656
212	0xbbd9ff63	-0.006652759
213	0x3b9e8034	0.0048370603
214	0x3c24a8f3	0.010050046
215	0xbbee20b5	-0.0072670826
216	0x3beb7e85	0.007186713
217	0xbc19470e	-0.00935532
218	0xbc323fb9	-0.0108794505
219	0xb9e273f7	-0.0004319248
220	0xbb23fbcc	-0.0025021909
221	0x3b0fc71c	0.0021938747
222	0xbb7333b7	-0.0037109682
223	0xb9e5fb82	-0.00043865672
224	0xbb2d42fb	-0.0026437629
225	0xbbd1d967	-0.00640409
226	0xbca2cce5	-0.019873092
227	0xbc357140	-0.011074364
228	0xbc2d9b63	-0.010596129
229	0xbb5fcc42	-0.0034148847
230	0xb9f49dfa	-0.00046657008
231	0xbb5a4c8a	-0.003330978
232	0xb95928ca	-0.00020709928
233	0xbb70de9b	-0.0036753777
234	0xbc5ed86a	-0.013601402
235	0xbaa57e08	-0.0012626061
236	0x3bd0dc2a	0.006373902
237	0xbbb5ba4a	-0.005545889
238	0xbbe4d4d5	-0.0069833794
239	0xbb3bfbcd	-0.002868402
240	0xbba47625	-0.0050189667
241	0xbbb6a257	-0.0055735516
242	0xbc6feadf	-0.0146434
243	0x3c12eecf	0.008968069
244	0x3be8b578	0.007101711
245	0xbbab688b	-0.0052309684
246	0xba91e3fd	-0.0011130568
247	0x3be711e5	0.0070516937
248	0x3c047646	0.008084839
249	0xbbc54c09	-0.006021027
250	0xbb0a0b7e	-0.0021063979
251	0x3a9663cb	0.0011473832
252	0xbb894c33	-0.004189992
253	0xba553b50	-0.00081341434
254	0xba501add	-0.0007938573
255	0x3c54bd9d	0.01298466

action_model._discrete_distribution.branches.3.bias f4 [3]
0	0x00000000	0.0
1	0x00000000	0.0
2	0x00000000	0.0
